LeNet/pages/LeNet/LeNet_FPGA.pth (torch_old, 248570 bytes, 10 tensors)

conv1.0.weight f4 [6, 1, 5, 5]
-0.062247235 -0.059396524 -0.08790094 -0.28878182 -0.35212776 0.10786298 0.017071685 -0.13313143
-0.1741173 -0.30177614 0.3170661 0.2826486 0.07781322 -0.17097624 0.00042514876 0.49666974
0.6370508 0.6681707 0.4730028 0.41455665 0.233895 0.455332 0.5265822 0.5396268
0.20626399 0.060662962 -0.15907177 0.044301346 -0.22507358 -0.18905447 -0.008728962 -0.06982343
0.21362229 -0.016554253 -0.1339516 0.2753872 0.2202772 0.1450745 0.25508085 0.39944687
-0.14561996 0.06817224 0.1790968 0.46496537 0.5515112 -0.1634451 0.112604976 0.18796007
0.44748864 0.3758949 -0.08866924 -0.033341307 0.3341481 0.17893414 0.29561928 -0.17188066
0.18231088 0.45250264 0.13716602 0.073695965 -0.016025642 0.10572539 0.30060634 0.44851387
0.035896175 -0.15975514 0.07784781 0.5036977 0.27966043 0.016611831 -0.024585582 0.299955
0.4653117 0.08276574 0.17252108 -0.22277251 -0.11286646 -0.22988684 0.13188645 0.03690291
-0.10202004 -0.13713959 0.0010906643 0.15710872 -0.008295918 -0.14799218 -0.18842606 -0.09281854
0.11476526 0.35660124 -0.06244757 -0.080128215 0.068743244 0.48175913 0.22541031 0.21144602
0.3911231 0.40910795 0.46700272 0.17313325 0.15192977 -0.0079095345 -0.07578735 -0.040744487
0.24060926 -0.17316298 0.08474923 0.1330646 0.44970387 0.18954296 -0.1901338 0.27808928
0.65009785 0.5106865 0.13753033 0.36572266 0.53528076 0.6584973 0.6905783 0.29522306
0.3247624 0.10400822 0.5298964 0.43570268 0.16147736 0.17915635 0.32146573 0.46563348
0.22316563 0.28607854 0.34434292 0.36760196 0.40228596 0.44433916 0.28473875 0.04133121
0.11204081 0.32048956 0.35106364 -0.04480209 0.050455328 -0.33288056 -0.17769632 -0.12188353
-0.03756913 -0.2870501 -0.407459 -0.25384232 0.011940686 0.19145486
00000000: f5f6 7ebd c549 73bd 6805 b4bd 36db 93be
00000010: 174a b4be 44e7 dc3d ebd9 8b3c 9b53 08be
00000020: ce4b 32be 6782 9abe 7d56 a23e 51b7 903e
00000030: 8a5c 9f3d 6514 2fbe 80e6 de39 7f4b fe3e
00000040: c315 233f 3c0d 2b3f 6c2d f23e c540 d43e
00000050: 2c82 6f3e 4721 e93e 17ce 063f fb24 0a3f
00000060: de36 533e ba79 783d b6e3 22be 5475 353d
00000070: b079 66be 7f97 41be ec03 0fbc 96ff 8ebd
00000080: cdbf 5a3e c99c 87bc 9c2a 09be 8dff 8c3e
00000090: 5990 613e 698e 143e f599 823e 4d84 cc3e
000000a0: 661d 15be e39d 8b3d 2765 373e f10f ee3e
000000b0: d72f 0d3f 275e 27be 709d e63d 9b78 403e
000000c0: 3b1d e53e 4c75 c03e 3898 b5bd e590 08bd
000000d0: 7615 ab3e 833a 373e 695b 973e 7c01 30be
000000e0: b4af 3a3e 6dae e73e 4075 0c3e e9ed 963d
000000f0: 3548 83bc 8e86 d83d 13e9 993e 9ca3 e53e
00000100: de07 133d da96 23be ac6e 9f3d 55f2 003f
00000110: a72f 8f3e 8915 883c b467 c9bc b493 993e
00000120: 563d ee3e 1681 a93d 5ea9 303e 7a1e 64be
00000130: 8826 e7bd 7567 6bbe 3e0d 073e 8127 173d
00000140: e2ef d0bd 526e 0cbe 9ff4 8e3a 1ce1 203e
00000150: 9aeb 07bc 438b 17be c3f2 40be a617 bebd
00000160: 0c0a eb3d 7094 b63e 06c9 7fbd 431a a4bd
00000170: 42c9 8c3d 22a9 f63e f6d1 663e 4e85 583e
00000180: 4941 c83e 9976 d13e fb1a ef3e d849 313e
00000190: 7a93 1b3e fe96 01bc 6636 9bbd b1e3 26bd
000001a0: 4662 763e a351 31be 0191 ad3d 1642 083e
000001b0: 963f e63e 8d17 423e 6fb2 42be b861 8e3e
000001c0: d06c 263f 5abc 023f c0d4 0c3e 0040 bb3e
000001d0: 2908 093f 4793 283f bdc9 303f 7a27 973e
000001e0: 4247 a63e 4302 d53d 4aa7 073f 6c14 df3e
000001f0: 525a 253e c374 373e 2897 a43e 8367 ee3e
00000200: 8885 643e e378 923e b74d b03e 5336 bc3e
00000210: 6df8 cd3e 6c80 e33e 47c9 913e ea4a 293d
00000220: a775 e53d 3517 a43e 9dbe b33e 6582 37bd
00000230: 3faa 4e3d 526f aabe 06f6 35be 129e f9bd
00000240: 17e2 19bd 3bf8 92be 779e d0be 9ff7 81be
00000250: dea2 433c be0c 443e

conv1.0.bias f4 [6]
0.0006594512 0.07233986 -0.00803809 0.12607542 -0.0017434619 0.06717897
00000000: 05df 2c3a ec26 943d 31b2 03bc ea19 013e
00000010: e084 e4ba 2195 893d

conv2.0.weight f4 [16, 6, 5, 5]
0.06798067 -0.0062995595 -0.0686534 0.015382684 0.0024399115 0.14797737 0.109304704 -0.030991666
-0.0043669627 0.07580711 0.12822384 0.106720835 0.10347946 -0.05212208 -0.053687274 -0.034265187
0.054590873 0.08208463 0.17459828 0.009029637 -0.050391383 0.070890926 0.07104082 0.059894174
-0.026412996 0.044545002 -0.103935696 -0.1050875 0.07382701 0.032181386 -0.027438855 -0.07089674
-0.09514414 0.08011555 -0.0022476604 0.077819936 0.05326561 -0.04922047 -0.09219885 -0.026954368
-0.010028151 0.123851135 0.07436504 0.039830733 0.052889593 0.0738871 -0.0079716435 0.09344319
0.07377823 -0.0046953275 -0.013747792 -0.0060271397 -0.012827316 0.01157055 0.022352621 0.08970078
-0.10083279 -0.025347572 0.0024669429 -0.020383101 0.05262228 -0.09054965 0.030388739 -0.03872488
0.021980522 0.13044526 -0.020067751 -0.044373427 0.038809635 -0.024787223 -0.0072998907 0.039785888
0.004812077 -8.058641e-05 -0.054804437 -0.06302692 -0.09385581 0.016970888 -0.06010641 0.070529446
-0.08413601 0.06638779 0.055924896 0.006296738 0.050801817 0.008344857 -0.05661995 -0.022479326
-0.008271809 0.04455839 0.0853638 0.019838523 -0.049680337 0.08090875 -0.040301967 0.04821362
0.0671304 0.023341684 0.005175209 -0.017164253 -0.08723214 -0.13100933 -0.15399258 -0.047630873
0.033705663 0.011831298 -0.13932255 -0.09067396 0.04449851 -0.053221278 0.06399756 0.05497231
0.04049899 -0.09475119 -0.071503945 0.11134381 0.0460342 -0.004156556 -0.056200046 0.008133177
0.07290266 0.044769846 0.04246222 0.12122816 0.0011080806 0.03400806 -0.028390264 0.0052667353
-0.069451444 -0.028203737 0.07200192 -0.08918792 -0.03740329 -0.07860302 0.010477621 0.048067123
0.045932114 -0.018421104 0.016695265 0.005471343 0.041166384 0.061279435 -0.07085732 -0.031481914
-0.06477627 0.10188337 0.119075544 -0.016595041 0.075215235 0.08608558 -0.00949607 -0.08031523
-0.057740457 0.054544047 0.044070657 0.042311575 0.012765015 -0.13072154 0.07602462 0.07814259
0.016105732 0.047818005 -0.054547064 -0.057467192 -0.016019987 0.0057084495 -0.031608444 -0.07979283
0.020105667 0.03040169 -0.035537228 0.08438904 0.0004984661 -0.0043802923 -0.05726715 -0.038890105
-0.085507475 -0.03738231 0.053715404 -0.013064085 0.057542786 -0.09628875 -0.05647332 0.021929123
0.09439774 -0.05473533 -0.002309045 -0.08699509 0.045173794 0.11602202 0.05583397 -0.010840854
-0.039321393 0.026030594 -0.094145186 0.035100102 0.063304074 -0.040346563 -0.04412496 -0.087106764
-0.07272161 -0.022547396 -0.08040453 0.1145057 -0.019604886 0.039518125 -0.0712797 -0.06689262
0.12182108 0.12559763 0.021855537 0.051336918 -0.0067370785 -0.04490964 0.05264602 -0.035153396
-0.11015336 0.01043428 -0.039985035 0.021528417 -0.045047514 -0.016859323 0.072880566 -0.056748815
-0.06490957 -0.048676055 -0.056157306 -0.024354693 0.10789522 -0.077396125 -0.03872611 -0.05145105
0.06206522 0.097635955 -0.06985183 -0.07002319 -0.002819992 -0.015250047 -0.059553374 0.058316205
0.016285708 -0.055946145 -0.0765411 -0.03048906 0.031215101 -0.059304465 0.066000834 0.049654264
0.101366304 -0.03015866 0.059138145 -0.09886929 0.030263325 0.12306668 0.07211658 -0.026519569
00000000: 7339 8b3d 896c cebb 279a 8cbd a707 7c3c
00000010: ece6 1f3b 6187 173e 25db df3d 3ce2 fdbc
00000020: bd18 8fbb c240 9b3d 1c4d 033e 7490 da3d
00000030: 0aed d33d f67d 55bd 30e7 5bbd a759 0cbd
00000040: ae9a 5f3d fd1b a83d e4c9 323e 0bf1 133c
00000050: 3267 4ebd 432f 913d d97d 913d 9853 753d
00000060: 1160 d8bc d274 363d 3ddc d4bd 1d38 d7bd
00000070: 9e32 973d a1d0 033d 73c7 e0bc 4f32 91bd
00000080: eeda c2bd 9f13 a43d 7c4d 13bb 0f60 9f3d
00000090: 0a2d 5a3d 679b 49bd c0d2 bcbd 68cf dcbc
000000a0: 1d4d 24bc aaa5 fd3d b34c 983d 8d25 233d
000000b0: c2a2 583d 1f52 973d 7f9b 02bc 255f bf3d
000000c0: 0a19 973d 43db 99bb 6b3e 61bc 507f c5bb
000000d0: aa29 52bc 6792 3d3c d81c b73c 0bb5 b73d
000000e0: 6c81 cebd b6a5 cfbc 6fac 213b 76fa a6bc
000000f0: 768a 573d 1872 b9bd cef1 f83c fb9d 1ebd
00000100: 7f10 b43c 7193 053e 2065 a4bc e9c0 35bd
00000110: daf6 1e3d 930e cbbc ec33 efbb 87f6 223d
00000120: a1ae 9d3b 8000 a9b8 9e7a 60bd 4214 81bd
00000130: 7a37 c0bd 8806 8b3c 2432 76bd be71 903d
00000140: 804f acbd 52f6 873d 8111 653d de54 ce3b
00000150: 9115 503d deb8 083c 52ea 67bd 9026 b8bc
00000160: 7b86 07bc dc82 363d 37d3 ae3d 6684 a23c
00000170: 9c7d 4bbd 7db3 a53d ad13 25bd a57b 453d
00000180: aa7b 893d 0f37 bf3c cd94 a93b 0c9c 8cbc
00000190: c4a6 b2bd 4f27 06be 3bb0 1dbe 9718 43bd
000001a0: f30e 0a3d 0fd8 413c 92aa 0ebe 45b3 b9bd
000001b0: 1244 363d 8efe 59bd 2711 833d a52a 613d
000001c0: 45e2 253d e90c c2bd a970 92bd 3908 e43d
000001d0: 5b8e 3c3d b833 88bb 0532 66bd 0441 053c
000001e0: fd4d 953d 9660 373d ddec 2d3d 7846 f83d
000001f0: 043d 913a 094c 0b3d b392 e8bc 9494 ac3b
00000200: 8f3c 8ebd 860b e7bc be75 933d 28a8 b6bd
00000210: 3134 19bd 9ffa a0bd 54aa 2b3c 08e2 443d
00000220: 5023 3c3d dbe7 96bc 82c4 883c f448 b33b
00000230: 159e 283d 2500 7b3d a51d 91bd 2ef3 00bd
00000240: 6ca9 84bd 3aa8 d03d e1dd f33d 53f2 87bc
00000250: 720a 9a3d a34d b03d 6895 1bbc 507c a4bd
00000260: 4281 6cbd 9469 5f3d 6f83 343d e74e 2d3d
00000270: 5a24 513c dedb 05be ccb2 9b3d 3909 a03d
00000280: 2bf0 833c d0dc 433d be6c 5fbd b862 6bbd
00000290: 593c 83bc f20d bb3b db77 01bd 6c6a a3bd
000002a0: a4b4 a43c f70c f93c 7c8f 11bd 29d4 ac3d
000002b0: 7eab 023a 8e88 8fbb f690 6abd 3b4b 1fbd
000002c0: 8b1e afbd 311e 19bd af04 5c3d be0a 56bc
000002d0: fcb1 6b3d 0933 c5bd 9150 67bd b4a4 b33c
000002e0: 9a53 c13d 2732 60bd 5953 17bb 7b2a b2bd
000002f0: 2808 393d f49c ed3d 29b2 643d d69d 31bc
00000300: 780f 21bd 1d3e d53c 31cf c0bd 20c5 0f3d
00000310: 91a5 813d 7042 25bd 60bc 34bd 0865 b2bd
00000320: 11ef 94bd 51b5 b8bc 21ab a4bd f781 ea3d
00000330: 6d9a a0bc c2dd 213d 17fb 91bd fffe 88bd
00000340: 557d f93d aa9c 003e 620a b33c a946 523d
00000350: b6c2 dcbb 2cf3 37bd 5aa3 573d 02fd 0fbd
00000360: 1698 e1bd 8bf4 2a3c 59c7 23bd 5d5c b03c
00000370: be83 38bd 901c 8abc 6842 953d 7271 68bd
00000380: 4fef 84bd 8b60 47bd 3405 66bd 7e83 c7bc
00000390: 2bf8 dc3d dc81 9ebd 459f 1ebd 56be 52bd
000003a0: 1a38 7e3d 5cf5 c73d 7a0e 8fbd 5168 8fbd
000003b0: 9dcf 38bb 55db 79bc 3dee 73bd f9dc 6e3d
000003c0: 9b69 853c c927 65bd 95c1 9cbd 31c4 f9bc
000003d0: d0b6 ff3c 3de9 72bd 722b 873d 4562 4b3d
000003e0: 2399 cf3d 4b0f f7bc d73a 723d fb7b cabd
000003f0: cbea f73c 620a fc3d dcb1 933d 913f d9bc

conv2.0.bias f4 [16]
0.062560305 0.016313499 0.0071122227 0.044260807 0.030100212 -0.05243743 -0.054946564 -0.10404589
0.071369976 0.024677722 0.020689955 -0.019394739 -0.016365686 0.03881423 -0.03189043 0.051028397
00000000: 9e1f 803d e3a3 853c a60d e93b d24a 353d
00000010: b894 f63c a1c8 56bd a60f 61bd 0316 d5bd
00000020: 6c2a 923d ef28 ca3c fb7d a93c b7e1 9ebc
00000030: 5511 86bc acfb 1e3d 8a9f 02bd 2703 513d

fc1.0.weight f4 [120, 400]
-0.008472234 0.016857844 -0.002762515 -0.049397156 0.025979316 0.039233167 0.029192206 0.0050342726
-0.052165054 0.017046975 -0.02965795 0.0035577938 -0.025562095 0.009968452 0.013258999 0.026869286
0.030148152 -0.024142701 -0.010959476 0.033463117 0.012462648 0.032665297 0.019362386 -0.0140013145
0.043823082 -0.02524914 0.015400359 0.01499999 -0.00990459 0.045059446 -0.008488917 0.031611416
0.007213812 0.02514101 0.029789248 0.019495105 0.027235102 -0.013722671 -0.034920465 -0.016295796
-0.01224202 -0.038754202 0.033949308 0.0078846635 -0.0025003646 0.041897994 -0.02064595 0.03364441
-0.033307824 0.028700974 -0.05315907 -0.009036192 -0.0075484924 0.021518156 0.00047673713 0.038354993
-0.047120664 0.031162005 0.017977603 0.045867383 -0.034405988 0.008388272 0.029382955 0.035700772
0.049296692 0.000962032 0.014065056 0.037132796 0.042639084 -0.011370543 0.0014877793 0.025832357
-0.018857975 0.0038402784 0.015269658 0.037676424 -0.013143015 -0.016059162 0.03820756 0.034219634
-0.017608613 0.030096395 -0.03054962 0.05513072 -0.026869524 -0.027574053 -0.030165179 -0.005387509
-0.03304779 0.0029594768 0.022964409 -0.02543478 -0.016801596 -0.041509997 0.022944495 0.025146207
0.04190838 0.041058637 -0.007116306 0.04146146 -0.028743709 0.035098847 0.0056665926 -0.031694982
0.035357986 -0.044802163 0.049892135 0.0032467484 0.009031471 0.0018563734 -0.035109237 -0.029848116
0.0022198074 -0.03836948 0.023343943 -0.02017801 0.01574156 0.011640894 0.018459216 -0.03760436
-0.009636434 0.038624685 -0.033677034 0.025944205 -0.00019174404 0.014791584 -0.026451325 0.0063786483
-0.0009879646 -0.010864098 0.0071455548 -0.046757452 -0.018141937 -0.022050919 -0.025863057 0.008681787
-0.017672928 0.008492024 0.027564038 -0.034917302 0.040923197 -0.03301281 -0.018327577 -0.030018013
0.022135386 -0.0411527 -0.036223896 0.007512785 0.008942913 0.02075356 -0.0058183325 0.004410824
-0.03434074 0.058413617 -0.03461905 -0.025241077 0.05254395 -0.04416247 -0.035486117 -0.015714638
-0.011021263 -0.01986387 0.0060460935 0.02723974 0.01145592 0.005676017 -0.028069243 0.029395133
-0.014238576 -0.0016268862 0.016367177 -0.042035237 -0.00802558 0.010163799 0.042269923 0.017100463
-0.03894651 0.03878242 -0.030711906 -0.0053743687 0.0452219 -0.03041993 -0.045479 -0.011010991
-0.031200308 -0.0033626852 -0.005948801 -0.04876878 0.033894315 0.043219525 -0.032007392 -0.03848094
-0.006011587 0.042733185 -0.038863927 -0.014807405 -0.004206356 0.044779733 -0.004479641 0.016961865
-0.019968875 -0.041368164 -0.042927716 -0.010909876 0.04676196 -0.03311929 0.037980415 0.012868488
0.015908355 0.021364613 -0.028375141 0.049106807 0.04782564 -0.041983265 0.03721033 -0.014894038
-0.01436467 0.011347778 0.027510142 0.038382202 0.012444146 0.0061216443 -0.030421346 -0.026658693
0.0021606567 -0.021550167 -0.027256133 0.036813248 0.05255629 0.04663892 0.04954365 0.036218036
0.024635073 0.043742325 -0.040841416 0.0031436647 -0.048978645 0.0050256653 0.04866467 0.03587796
-0.010629973 0.039607275 -0.00065396103 0.029077489 0.019224558 0.034519352 -0.016106954 0.05037723
-0.044566963 -0.04482464 0.030236378 0.05403562 0.03392328 0.04023403 0.015432407 0.039209086
00000000: 20cf 0abc 7619 8a3c 500b 35bb ac54 4abd
00000010: 93d2 d43c f5b2 203d 7e24 ef3c 8af6 a43b
00000020: 06ab 55bd 19a6 8b3c 3bf5 f2bc e029 693b
00000030: 9967 d1bc b852 233c 463c 593c fa1c dc3c
00000040: 42f9 f63c eac6 c5bc 608f 33bc 9f10 093d
00000050: 2230 4c3c 0ccc 053d de9d 9e3c c565 65bc
00000060: d57f 333d 49d7 cebc ca51 7c3c 85c2 753c
00000070: dd46 22bc 4190 383d 1915 0bbc f97a 013d
00000080: d761 ec3b 85f4 cd3c 9508 f43c 33b4 9f3c
00000090: 261c df3c 0ed5 60bc c308 0fbd c37e 85bc
000000a0: c192 48bc babc 1ebd 6e0e 0b3d ad2e 013c
000000b0: 28dd 23bb 3b9d 2b3d b221 a9bc b9ce 093d
000000c0: c96d 08bd 4e1e eb3c 53bd 59bd 890c 14bc
000000d0: 5859 f7bb d846 b03c 93f2 f939 201a 1d3d
000000e0: 9901 41bd 7647 ff3c c445 933c 70df 3b3d
000000f0: 4bed 0cbd f66e 093c 86b4 f03c f93a 123d
00000100: 54eb 493d e030 7c3a 1f71 663c 8f18 183d
00000110: 52a6 2e3d 844b 3abc 9701 c33a 619e d33c
00000120: 0a7c 9abc 2ead 7b3b 962d 7a3c 9852 1a3d
00000130: cd55 57bc 818e 83bc 887f 1c3d e329 0c3d
00000140: f03f 90bc b78c f63c 3243 fabc c0d0 613d
00000150: 7a1d dcbc fbe2 e1bc f71c f7bc b389 b0bb
00000160: 1f5d 07bd c8f3 413b db1f bc3c 9a5c d0bc
00000170: 80a3 89bc 6306 2abd 18f6 bb3c 6bff cd3c
00000180: 1fa8 2b3d 1a2d 283d e72f e9bb 7ed3 293d
00000190: ed77 ebbc cfc3 0f3d d3ae b93b 99d2 01bd
000001a0: 89d3 103d 7982 37bd b25b 4c3d 66c7 543b
000001b0: bcf8 133c 8e51 f33a b4ce 0fbd 0984 f4bc
000001c0: 307a 113b 5129 1dbd cc3b bf3c 5b4c a5bc
000001d0: 72f4 803c 73b9 3e3c c837 973c 0807 1abd
000001e0: 22e2 1dbc eb34 1e3d eef0 09bd f188 d43c
000001f0: e60e 49b9 6658 723c 73b0 d8bc fb03 d13b
00000200: 977e 81ba 54ff 31bc 4225 ea3b be84 3fbd
00000210: 669e 94bc 21a4 b4bc c3de d3bc 0e3e 0e3c
00000220: d1c6 90bc 2122 0b3c facd e13c 7205 0fbd
00000230: 159f 273d 7138 07bd b723 96bc 56e8 f5bc
00000240: 4555 b53c bc8f 28bd 825f 14bd cf2d f63b
00000250: 4c85 123c 5f03 aa3c b6a7 bebb ac88 903b
00000260: e0a8 0cbd 1e43 6f3d b4cc 0dbd 60c6 cebc
00000270: 5338 573d b5e3 34bd e459 11bd fcbb 80bc
00000280: 8792 34bc 8eb9 a2bc 4f1e c63b e025 df3c
00000290: 9cb1 3b3c e2fd b93b 78f1 e5bc 10ce f03c
000002a0: eb48 69bc 3e3d d5ba 7514 863c 242d 2cbd
000002b0: b97d 03bc 1086 263c 3a23 2d3d 4516 8c3c
000002c0: 6086 1fbd 51da 1e3d 8997 fbbc 791b b0bb
000002d0: 993a 393d 3833 f9bc 3048 3abd 7267 34bc
000002e0: ca97 ffbc 7f60 5cbb 29ee c2bb c6c1 47bd
000002f0: c4d4 0a3d f506 313d 2f1a 03bd 319e 1dbd
00000300: d9fc c4bb fe08 2f3d c82f 1fbd c29a 72bc
00000310: 79d5 89bb f46a 373d f4c9 92bb 9cf3 8a3c
00000320: c495 a3bc aa71 29bd f9d4 2fbd 56bf 32bc
00000330: 7889 3f3d 18a8 07bd 5a91 1b3d 5ad6 523c
00000340: 3d52 823c d704 af3c fc72 e8bc 3824 493d
00000350: d1e4 433d a5f6 2bbd dc69 183d 2006 74bc
00000360: cb59 6bbc 08ec 393c f35c e13c a836 1d3d
00000370: 88e2 4b3c 1398 c83b 3036 f9bc 5563 dabc
00000380: ce99 0d3b fa89 b0bc 4148 dfbc 7dc9 163d
00000390: 4445 573d 7408 3f3d 48ee 4a3d 5d59 143d
000003a0: 7ecf c93c 272b 333d 5449 27bd f105 4e3b
000003b0: d59d 48bd 56ae a43b 9b54 473d c5f4 123d
000003c0: 5729 2ebc 3d3b 223d 956e 2bba ea33 ee3c
000003d0: d27c 9d3c 2a64 0d3d bbf2 83bc 5b58 4e3d
000003e0: d98b 36bd 0b9a 37bd 48b2 f73c 7454 5d3d
000003f0: 23f3 0a3d 70cc 243d 35d8 7c3c b599 203d

fc1.0.bias f4 [120]
0.030332504 -0.04531648 0.05073627 -0.03627748 -0.023064567 -0.010779923 -0.03843529 0.075200595
-0.042000834 -0.029497325 -0.027325943 0.016153287 -0.02575187 -0.0010176385 0.049126096 0.011701894
0.004744857 0.024494307 0.004956209 -0.018054271 -0.040680036 0.048548814 0.022999188 -0.027610831
0.025754653 -0.048638403 0.033244498 -0.017352033 0.009855082 -0.016407471 -0.046167366 0.027944136
-0.012856387 0.03350771 0.010563403 0.037224323 0.03378814 -0.016899455 -0.05089092 0.04650676
-0.0320809 -0.05914072 0.015203569 0.007648169 -0.045333736 -0.02665576 0.009329906 0.049864393
0.022403272 0.044113643 0.03713842 0.06243099 0.038514756 0.010762082 0.03610101 0.010998585
-0.018295936 0.038499326 0.057230316 -0.03404895 -0.034655537 -0.028703177 -0.022904864 -0.038877636
0.014520658 0.034363553 0.01861898 0.03832467 -0.026048824 -0.049105577 0.0037872952 -0.041971616
0.049327094 0.03508899 0.038328547 0.043794964 0.013200811 -0.02562271 0.035948493 0.0074468534
-0.022403514 -0.02460978 0.020757312 -0.029114906 0.0047885356 0.015185865 -0.0050349217 -0.0073661716
-0.02561923 0.02281859 0.01746528 0.028713308 -0.010795338 0.05709742 -0.025527555 0.0054497286
-0.0023151475 0.020132415 0.041908193 0.0016555878 -0.022607723 0.003058984 -0.028983293 0.046193898
-0.050234497 0.015334432 -0.047514454 -0.023499576 0.0054709823 0.011464918 0.03593149 -0.022755474
-0.043764953 -0.0017411 -0.046975423 -0.026709842 -0.02330313 0.009562658 0.0076002986 0.01332408
00000000: df7b f83c c69d 39bd d6d0 4f3d b297 14bd
00000010: e7f1 bcbc 469e 30bc 536e 1dbd c502 9a3d
00000020: 1109 2cbd 60a4 f1bc a8da dfbc e653 843c
00000030: 96f5 d2bc 4862 85ba 7238 493d 4db9 3f3c
00000040: bf7a 9b3b 49a8 c83c b267 a23b 8de6 93bc
00000050: 1ca0 26bd 1fdb 463d cb68 bc3c 1c30 e2bc
00000060: 6cfb d23c 1039 47bd 622b 083d da25 8ebc
00000070: 3677 213c f668 86bc fe19 3dbd 1aeb e43c
00000080: 98a3 52bc 613f 093d 2012 2d3c 8878 183d
00000090: 6f65 0a3d ba70 8abc ff72 50bd df7d 3e3d
000000a0: 4367 03bd 8a3d 72bd 6418 793c 7e9d fa3b
000000b0: deaf 39bd 2e5d dabc 76dc 183c 9b3e 4c3d
000000c0: 1187 b73c 82b0 343d 751e 183d a3b7 7f3d
000000d0: a6c1 1d3d 7253 303c a7de 133d 6933 343c
000000e0: 5ce1 95bc 78b1 1d3d 566a 6a3d e976 0bbd
000000f0: f7f2 0dbd ed22 ebbc fba2 bbbc 283e 1fbd
00000100: 0ee8 6d3c ccc0 0c3d d586 983c 54fa 1c3d
00000110: 5864 d5bc ee22 49bd 4534 783b 6eea 2bbd
00000120: 350b 4a3d 79b9 0f3d 65fe 1c3d 5962 333d
00000130: 3748 583c b8e6 d1bc ba3e 133d bc04 f43b
00000140: 9387 b7bc 739a c9bc 3d0b aa3c 6282 eebc
00000150: 26e9 9c3b 22ce 783c fcfb a4bb ed5f f1bb
00000160: 6bdf d1bc 0dee ba3c 5913 8f3c 2c38 eb3c
00000170: eede 30bc fcde 693d 2a1f d1bc a393 b23b
00000180: bbb9 17bb bcec a43c eda7 2b3d 4f00 d93a
00000190: d533 b9bc 3c79 483b 5f6e edbc d035 3d3d
000001a0: b0c2 4dbd 453d 7b3c 849e 42bd 2f82 c0bc
000001b0: ed45 b33b 5ad7 3b3c e62c 133d b069 babc
000001c0: e142 33bd 9f35 e4ba 4d69 40bd 99ce dabc
000001d0: 35e6 bebc b2ac 1c3c ed0b f93b 3e4d 5a3c

fc2.0.weight f4 [84, 120]
0.03575684 -0.11613672 -0.017773956 -0.03288966 0.067493916 0.0038078965 -0.08068928 0.06447302
-0.008033419 0.02999597 0.023527373 -0.04022858 -0.03148956 0.02566234 -0.062581904 -0.09168453
0.10137931 0.0048067137 -0.046281498 -0.07025966 -0.057839576 0.07863452 0.019843759 0.031308115
-0.050868098 0.045617532 -0.073217236 -0.0870561 -0.08435967 0.03415471 -0.0014337507 -0.05690872
0.07205196 -0.04067675 -0.07658849 -0.0098908665 -0.06655276 -0.056438953 -0.08408124 -0.0008834607
4.7711626e-05 -0.06400636 0.04053869 0.024545277 0.041777067 0.02519595 0.08254827 -0.06361317
-0.08029771 0.060701057 0.065959774 -0.069253154 -0.056467857 -0.08260401 0.051781867 -0.021965919
0.069270805 0.01265201 0.08591962 0.00064853625 0.048868615 0.098988146 -0.0091338325 0.08216244
-0.0946277 -0.026299907 0.01060315 0.07533682 -0.056918077 0.03712866 -0.049039014 -0.015839996
-0.0014769466 0.013763302 -0.04950155 0.06205828 0.08087386 -0.0077390866 -0.016555244 -0.079097226
0.044624537 -0.05484072 0.03548337 -0.013729715 -0.102236584 -0.009000169 0.026652759 0.048373945
-0.042988133 -0.03327079 -0.010183091 -0.0073513803 0.07478132 -0.025129871 0.026992997 0.01572821
0.041123807 -0.042062134 -0.023354732 -0.010464654 0.02206066 -0.05395908 -0.06160986 -0.03695808
0.0625765 0.09730449 -0.04370764 -0.014372829 -0.053629283 0.070652284 0.05522387 -0.0012718558
-0.024389964 0.020873819 0.064035155 0.074867554 -0.038077462 0.043181248 0.01818271 0.017122813
0.080042645 -0.017392728 0.13765195 -0.10107759 -0.041123897 -0.020012148 0.085174195 0.12598635
0.053032592 0.07724188 0.015869902 0.024217518 0.051214475 0.009964039 -0.040729493 -0.024638956
0.05601455 0.10055783 -0.09130691 0.033829417 0.034328636 -0.03705511 -0.13512787 -0.07942599
0.06472936 0.04971487 0.0062522655 -0.017395329 -0.009413406 0.04581581 0.058777615 -0.01639383
0.06333897 0.010678954 -0.086507894 0.084856115 -0.012659184 -0.02670249 0.08982997 0.11659989
0.13781837 -0.069880374 0.055754837 -0.019016301 0.08991172 0.15352564 0.066738725 -0.068408586
-0.048606735 0.0110027995 -0.014397062 -0.06695972 0.08617241 0.03413693 -0.010968148 -0.0062986882
-0.036848865 0.116403036 -0.093015306 -0.119129814 -0.032550804 -0.02967346 0.08479418 0.021803398
0.047707334 -0.05121992 0.0071085496 0.038891632 0.03485771 0.06675626 -0.03870968 0.0066576926
-0.065387346 -0.10100231 -0.029380757 -0.03752414 0.068021595 0.07332991 -0.034052216 -0.10790704
-0.050674677 -0.03414898 -0.124609694 0.06252875 -0.037599143 -0.072592795 -0.06614918 -0.010615055
0.0011408909 -0.013819289 -0.008296351 0.06508747 -0.103664845 0.066262014 -0.07263467 0.076884076
0.0457489 0.034484915 -0.01849108 -0.029437495 -0.020898001 -0.03608691 0.05256613 0.011694926
0.05283758 -0.048319366 -0.025071103 -0.063150555 -0.0090233 -0.00037373445 -0.035731226 0.064974435
-0.03598092 -0.057752702 -0.074188046 -0.08042368 0.035447307 0.051366422 0.039335325 0.08884272
0.03157227 -0.050556544 0.044579916 0.07571037 -0.12640804 -0.09349047 0.09731855 -0.089396514
0.07561564 0.056894425 0.09289532 0.038097754 0.027070194 -0.03751062 -0.0054292227 0.18302582
00000000: c475 123d 17d9 edbd b09a 91bc 4fb7 06bd
00000010: 403a 8a3d e78d 793b 6c40 a5bd 6e0a 843d
00000020: 9a9e 03bc 1cba f53c 7abc c03c b9c6 24bd
00000030: 32fb 00bd d439 d23c f12a 80bd 19c5 bbbd
00000040: f59f cf3d a381 9d3b ab91 3dbd 4ce4 8fbd
00000050: 31e9 6cbd 230b a13d 618f a23c f03c 003d
00000060: 115b 50bd 73d9 3a3d ebf2 95bd 784a b2bd
00000070: c3c4 acbd cfe5 0b3d b1ec bbba 1e19 69bd
00000080: fa8f 933d aa9c 26bd 6dda 9cbd 4d0d 22bc
00000090: d04c 88bd 882c 67bd c932 acbd 0b98 67ba
000000a0: f81d 4838 c415 83bd e60b 263d 2d13 c93c
000000b0: 6e1e 2b3d bd67 ce3c 110f a93d 9f47 82bd
000000c0: 2073 a4bd aca1 783d eb15 873d 99d4 8dbd
000000d0: d74a 67bd 4b2c a9bd 3919 543d dff1 b3bc
000000e0: dadd 8d3d 604a 4f3c a0f6 af3d 8802 2a3a
000000f0: 752a 483d 4cba ca3d 12a6 15bc c844 a83d
00000100: 2bcc c1bd e772 d7bc d6b8 2d3c 314a 9a3d
00000110: ee22 69bd 3914 183d 22dd 48bd e1c2 81bc
00000120: 1b96 c1ba 797f 613c 23c2 4abd d330 7e3d
00000130: 32a1 a53d 2a98 fdbb dd9e 87bc bafd a1bd
00000140: 38c8 363d aaa0 60bd 0357 113d 99f2 60bc
00000150: 6a61 d1bd 7275 13bc e356 da3c c223 463d
00000160: 5314 30bd f446 08bd fbd6 26bc d9e3 f0bb
00000170: f326 993d 29dd cdbc 6b20 dd3c 72d8 803c
00000180: 7071 283d 5849 2cbd 6c52 bfbc f173 2bbc
00000190: 8fb8 b43c 3204 5dbd 9f5a 7cbd 5b61 17bd
000001a0: 1c28 803d 9447 c73d c806 33bd 047c 6bbc
000001b0: 61aa 5bbd 25b2 903d 6d32 623d 66b4 a6ba
000001c0: 76cd c7bc 92ff aa3c dd24 833d 2954 993d
000001d0: 1df7 1bbd d2de 303d e8f3 943c 2445 8c3c
000001e0: 66ed a33d 327b 8ebc a2f4 0c3e c401 cfbd
000001f0: 8871 28bd 84f0 a3bc cf6f ae3d 9102 013e
00000200: b438 593d fe30 9e3d 9901 823c d163 c63c
00000210: 45c6 513d 3540 233c f8d3 26bd a3d7 c9bc
00000220: 836f 653d 43f1 cd3d 1eff babd b790 0a3d
00000230: 2f9c 0c3d 19c7 17bd f65e 0abe 18aa a2bd
00000240: d490 843d d2a1 4b3d cedf cc3b a680 8ebc
00000250: b03a 1abc 5ca9 3b3d ccc0 703d 5a4c 86bc
00000260: ddb7 813d c8f6 2e3c 0d2b b1bd 0bc9 ad3d
00000270: 7768 4fbc 2ebf dabc c6f8 b73d eccb ee3d
00000280: 4220 0d3e 711d 8fbd 2f5f 643d 13c8 9bbc
00000290: a323 b83d d335 1d3e 50ae 883d cd19 8cbd
000002a0: db17 47bd 1645 343c a8e1 6bbc 2d22 89bd
000002b0: 297b b03d 2ad3 0b3d bfb3 33bc 3a65 cebb
000002c0: d6ee 16bd b764 ee3d cf7e bebd 55fa f3bd
000002d0: fe53 05bd c215 f3bc 92a8 ad3d 0a9d b23c
000002e0: c468 433d fbcb 51bd d6ee e83b d54c 1f3d
000002f0: f5c6 0e3d 82b7 883d 0b8e 1ebd c628 da3b
00000300: cde9 85bd 4dda cebd eaaf f0bc eab2 19bd
00000310: e84e 8b3d fe2d 963d 567a 0bbd 5efe dcbd
00000320: 4090 4fbd cddf 0bbd 5e33 ffbd 130f 803d
00000330: 8f01 1abd 88ab 94bd 3979 87bd c5ea 2dbc
00000340: f289 953a 4d6a 62bc 6bed 07bc 944c 853d
00000350: 3c4e d4bd 61b4 873d 7cc1 94bd 6675 9d3d
00000360: 3363 3b3d 0e40 0d3d 9b7a 97bc e726 f1bc
00000370: 4932 abbc decf 13bd 954f 573d 139c 3f3c
00000380: 386c 583d 87ea 45bd ea61 cdbc 1455 81bd
00000390: 77d6 13bc caf1 c3b9 e85a 12bd 5111 853d
000003a0: bb60 13bd 198e 6cbd e7ef 97bd 2cb5 a4bd
000003b0: 3231 113d 9965 523d 141e 213d 2cf3 b53d
000003c0: ed51 013d 6114 4fbd 6e99 363d 0a0e 9b3d
000003d0: 1c71 01be ee77 bfbd f34e c73d 8515 b7bd
000003e0: 5fdc 9a3d 210a 693d e73f be3d 640c 1c3d
000003f0: 50c2 dd3c bca4 19bd 9fe7 b1bb 1f6b 3b3e

fc2.0.bias f4 [84]
0.004469469 -0.052481994 0.020180007 0.052725766 0.06724683 -0.04261701 -0.03929188 -0.06509858
-0.021697525 0.0049513155 0.037759505 -0.012617276 0.11144566 -0.064357944 0.09687175 0.045799673
0.035638943 -0.03067274 -0.037638042 -0.08867038 0.04413503 0.08795208 0.07662587 -0.07110958
0.058485027 -0.08634531 0.07216508 -0.053005617 -0.015824925 0.047315255 -0.055977322 -0.08337811
-0.020421512 -0.01691569 -0.056121178 0.0759417 -0.0075420216 0.005067545 -0.07650632 -0.06453024
-0.05569339 0.0680131 0.0089330375 -0.045305952 -0.041273102 -0.007882089 0.023308339 0.017376978
0.096416876 0.014337781 0.032232888 -0.038916506 -0.07052495 0.07841638 0.064709894 0.005331505
0.008195118 0.081853226 0.04741509 0.09905353 0.090009816 -0.08795348 0.095831245 0.050185807
-0.00472218 -0.0063168094 -0.04418086 0.094297275 0.046244886 0.08661108 0.072773375 0.046856266
-0.019018268 0.04255496 -0.04304223 0.06036419 0.07122647 0.008451302 0.09397361 -0.08780453
0.105495885 -0.01395422 -0.026743114 0.05144995
00000000: a074 923b 5cf7 56bd 8b50 a53c f9f6 573d
00000010: b5b8 893d 2d8f 2ebd 86f0 20bd 6852 85bd
00000020: 02bf b1bc a53e a23b b6a9 1a3d b1b8 4ebc
00000030: 9f3d e43d 19ce 83bd b264 c63d 7098 3b3d
00000040: 24fa 113d 6645 fbbc 592a 1abd d198 b5bd
00000050: efc6 343d 3820 b43d 06ee 9c3d e6a1 91bd
00000060: ff8d 6f3d cfd5 b0bd 49cb 933d 6b1c 59bd
00000070: 46a3 81bc a4cd 413d 7a48 65bd 24c2 aabd
00000080: 044b a7bc c692 8abc 52df 65bd 5287 9b3d
00000090: 1023 f7bb a60d a63b 58af 9cbd 6e28 84bd
000000a0: c11e 64bd 744a 8b3d e05b 123c bc92 39bd
000000b0: fc0d 29bd e123 01bc 21f1 be3c 2a5a 8e3c
000000c0: 3676 c53d 03e9 6a3c a206 043d ea66 1fbd
000000d0: 636f 90bd c498 a03d 9f86 843d e8b3 ae3b
000000e0: d144 063c aaa2 a73d 5336 423d 94dc ca3d
000000f0: 1157 b83d f420 b4bd 2c43 c43d a28f 4d3d
00000100: 84bc 9abb 3dfd cebb fdf6 34bd ee1e c13d
00000110: 476b 3d3d 2661 b13d 350a 953d 5bec 3f3d
00000120: 33cc 9bbc 1c4e 2e3d 0d4d 30bd 7140 773d
00000130: 2fdf 913d 5477 0a3c 3c75 c03d ddd2 b3bd
00000140: 3a0e d83d 3ea0 64bc 6014 dbbc 2fbd 523d

fc3.weight f4 [10, 84]
-0.0771353 0.04210596 0.21887036 0.13203852 0.06088699 0.084133565 -0.004815916 -0.004602052
-0.06049571 0.09500225 0.07554618 0.035926227 0.33291966 -0.056706913 0.14861895 0.2370734
-0.13265629 -0.029174475 0.11503993 -0.09583411 0.09830699 0.14231138 0.13825639 0.028223751
0.016558763 0.04802777 -0.086715646 -0.03857912 0.007777568 -0.27648565 -0.06989642 0.037155595
0.047665406 -0.043352284 0.10196973 0.10109384 0.000337403 -0.123914994 0.016177133 0.058157023
-0.059598196 -0.020954764 -0.11939314 -0.087454185 -0.12902379 -0.10473168 -0.2353753 0.015985867
0.09345106 0.00061733543 -0.06488795 -0.038541574 0.113473125 0.121620804 0.03918123 0.106369235
0.13542262 0.24129729 0.04148959 -0.20545645 -0.0712829 -0.039483413 -0.048755933 0.046057608
-0.08979317 0.18426412 -0.16504025 -0.31463164 -0.19562024 -0.021324042 -0.07463324 -0.03755916
-0.14393921 -0.16384815 0.13599965 -0.11640878 0.028580945 -0.056337282 0.07793897 0.0048263664
0.02225335 -0.012711839 0.24219875 -0.0007295671 0.024253435 -0.13362937 -0.13310757 -0.17701395
-0.1701365 -0.0022477247 -0.13434994 0.10464759 0.082265645 -0.015396542 -0.12407564 -0.051574774
0.033174455 -0.11022142 -0.17194773 0.0025863282 0.0802066 -0.1284078 0.029239858 0.07356955
-0.023762347 0.12684259 -0.12298812 0.05277569 -0.1096772 -0.0066010165 -0.1039811 0.20216645
-0.08332158 -0.006164542 0.03847894 0.051672503 0.062160503 -0.21366647 -0.09775786 0.05647671
0.046623677 0.20933278 -0.05460079 0.013859108 -0.18964915 -0.18945424 0.06534449 0.07287185
-0.003150168 0.24040186 -0.042594116 -0.08982785 0.2371856 0.14623812 -0.10811515 -0.04486122
-0.036229927 -0.18228717 0.3835328 -0.10449763 0.08143071 -0.049233396 -0.19297484 0.2114419
-0.10150288 0.104769774 0.0013806494 0.18340202 0.17671664 0.111753106 -0.15196338 0.13284364
-0.15957952 -0.16298473 0.1078367 0.03649944 0.10346584 -0.04442966 -0.013437775 0.24265334
-0.21544589 -0.022233013 0.19020338 0.09488799 0.040346097 0.0624267 0.030743519 0.0179499
-0.076150216 0.1580217 -0.13234809 -0.13795379 0.1297431 0.025156872 0.09774084 0.0683847
0.095944345 0.2504497 -0.01517502 0.016882919 0.16060767 0.21614084 -0.16304737 0.017100805
-0.052884996 0.11163888 0.09238119 -0.00083368254 0.022427358 0.13847056 0.056235865 0.033687774
0.2793669 0.08709431 0.09803541 0.064299665 0.080104806 0.059228256 -0.15037294 0.099066414
0.012804313 0.17317867 -0.07488129 0.12020161 0.030413862 -0.2473063 0.0922394 -0.08490087
-0.026733842 -0.20499305 -0.28280023 0.060010586 -0.005973791 0.24432056 -0.16788748 0.22137631
0.011872222 0.20366152 0.11207828 0.08604827 0.17057276 -0.030465562 0.060448933 -0.037669007
0.1685165 0.11993022 -0.050054163 -0.16027081 -0.31863564 0.096144095 -0.033023786 0.16612893
-0.05307879 -0.20008041 0.2245952 0.12473913 -0.27591103 -0.29550233 -0.048415642 0.030162863
-0.10931504 -0.05391856 -0.012477286 -0.14790067 -0.20114106 -0.10712189 -0.16334456 0.066477455
0.008576298 -0.027792005 -0.0038644338 0.031759977 -0.0822229 -0.081392184 -0.061893735 0.052944142
00000000: 1df9 9dbd 4d77 2c3d 8d1f 603e 1b35 073e
00000010: a364 793d 384e ac3d d5ce 9dbb cfcc 96bb
00000020: 59ca 77bd 8a90 c23d f5b7 9a3d 6127 133d
00000030: 7274 aa3e 8245 68bd 912f 183e 5fc3 723e
00000040: 0dd7 07be 4fff eebc 0e9a eb3d ad44 c4bd
00000050: 2d55 c93d 13ba 113e 1593 0d3e 7f35 e73c
00000060: 3ea6 873c c4b8 443d f997 b1bd 2405 1ebd
00000070: f8da fe3b 878f 8dbe db25 8fbd 7730 183d
00000080: cd3c 433d 2a92 31bd 81d5 d03d 4a0a cf3d
00000090: 77e5 b039 25c7 fdbd e885 843c 0f36 6e3d
000000a0: 3d1d 74bd 53a9 abbc 6484 f4bd 2e1b b3bd
000000b0: d01e 04be 907d d6bd 3906 71be cbf4 823c
000000c0: 4563 bf3d aed4 213a f9e3 84bd c5dd 1dbd
000000d0: 9964 e83d 5414 f93d 7f7c 203d 1dd8 d93d
000000e0: 3aac 0a3e a316 773e fdf0 293d 2d63 52be
000000f0: c5fc 91bd 5cb9 21bd 4db4 47bd e7a6 3c3d
00000100: 7be5 b7bd bcaf 3c3e 5000 29be 6617 a1be
00000110: ac50 48be c2af aebc 50d9 98bd a2d7 19bd
00000120: cd64 13be cfc7 27be 7e43 0b3e ba67 eebd
00000130: 9622 ea3c ecc1 66bd 779e 9f3d 7f26 9e3b
00000140: a84c b63c 5145 50bc f302 783e 6b40 3fba
00000150: 24af c63c 23d6 08be 5a4d 08be 2543 35be
00000160: 4338 2ebe 904e 13bb 0893 09be 7a51 d63d
00000170: e47a a83d c741 7cbc 5f1b febd 1240 53bd
00000180: f0e1 073d c5bb e1bd 1113 30be 637f 293b
00000190: 5c43 a43d 567d 03be 6d88 ef3c a2ab 963d
000001a0: 41a9 c2bc 06e3 013e 32e1 fbbd 522b 583d
000001b0: 719e e0bd 574d d8bb 0bf4 d4bd b904 4f3e
000001c0: 81a4 aabd edff c9bb 189c 1d3d 8ca6 533d
000001d0: 039c 7e3d 62cb 5abe 4635 c8bd 1f54 673d
000001e0: 78f8 3e3d 555b 563e 14a5 5fbd 5011 633c
000001f0: 6333 42be 4b00 42be 55d3 853d d63d 953d
00000200: 0d73 4ebb e82b 763e 2b77 2ebd aaf7 b7bd
00000210: c8e0 723e 72bf 153e 7a6b ddbd 66c0 37bd
00000220: d565 14bd 7da9 3abe 695e c43e da02 d6bd
00000230: 25c5 a63d f5a8 49bd 329b 45be 3a84 583e
00000240: bee0 cfbd 8991 d63d e8f6 b43a bdcd 3b3e
00000250: 35f5 343e d0de e43d 4a9c 1bbe 2a08 083e
00000260: d068 23be 78e5 26be 7dd9 dc3d 7080 153d
00000270: e6e5 d33d e0fb 35bd 1d2a 5cbc 1e7a 783e
00000280: d99d 5cbe 0222 b6bc adc4 423e a254 c23d
00000290: f341 253d 24b3 7f3d d5d9 fb3c ab0b 933c
000002a0: a5f4 9bbd 71d0 213e 4286 07be c243 0dbe
000002b0: 60db 043e c915 ce3c 592c c83d 470d 8c3d
000002c0: 787e c43d f13a 803e a6a0 78bc 0c4e 8a3c
000002d0: 5676 243e 0654 5d3e e4f5 26be fd16 8c3c
000002e0: f09d 58bd eda2 e43d 5932 bd3d 7d8b 5aba
000002f0: 94b9 b73c 3acb 0d3e 9457 663d 31fc 093d
00000300: 2e09 8f3e 805e b23d cac6 c83d 8baf 833d
00000310: fd0d a43d 5499 723d 5dfb 19be 55e3 ca3d
00000320: 2ec9 513c c055 313e 5d5b 99bd 432c f63d
00000330: 7e26 f93c dd3d 7dbe 03e8 bc3d 82e0 adbd
00000340: ee00 dbbc b3e9 51be 31cb 90be a9cd 753d
00000350: cabf c3bb 2b2f 7a3e b2ea 2bbe 79b0 623e
00000360: b583 423c a58c 503e 4c89 e53d 133a b03d
00000370: a0aa 2e3e ea92 f9bc 4d99 773d d14a 1abd
00000380: 978f 2c3e fa9d f53d 9805 4dbd 081e 24be
00000390: 3624 a3be 32e7 c43d f343 07bd b41d 2a3e
000003a0: 2569 59bd e1e1 4cbe 49fc 653e 3b77 ff3d
000003b0: 3644 8dbe 154c 97be 7b4f 46bd 1c18 f73c
000003c0: 90e0 dfbd b5d9 5cbd 886d 4cbc 4673 17be
000003d0: ecf7 4dbe b962 dbbd cc43 27be 5525 883d
000003e0: 9a83 0c3c 0fac e3bc 7142 7dbb c016 023d
000003f0: 7b64 a8bd f2b0 a6bd 4984 7dbd f5db 583d

fc3.bias f4 [10]
-0.04875848 0.10117487 -0.08940859 0.003073351 0.050927997 -0.006859674 -0.013045393 0.10286206
-0.07435759 -0.0007205233
00000000: f9b6 47bd c534 cf3d da1b b7bd 466a 493b
00000010: e099 503d 1ec7 e0bb 58bc 55bc 58a9 d23d
00000020: cb48 98bd 80e1 3cba
