LeNet/pages/LeNet/LeNet.pth (torch_old, 248672 bytes, 10 tensors)

conv1.0.weight f4 [6, 1, 5, 5]
0	0xbd84c2d4	-0.06482473
1	0xbd752ed7	-0.059859123
2	0xbdaf7c5e	-0.08568643
3	0xbe91f19e	-0.28504652
4	0xbeb2bedf	-0.34911248
5	0x3dd9061f	0.10596871
6	0x3c87f741	0.016597392
7	0xbe0560e1	-0.13025238
8	0xbe2e18c6	-0.17001638
9	0xbe98f4a8	-0.29874158
10	0x3ea11b98	0.31466365
11	0x3e8f408b	0.2797893
12	0x3da052ec	0.07828316
13	0xbe2cb8a8	-0.16867316
14	0x3b2fb42e	0.0026810276
15	0x3efcdc6b	0.49386916
16	0x3f217df8	0.6308284
17	0x3f29bb5c	0.6630151
18	0x3ef12c29	0.47104004
19	0x3ed433c5	0.41445747
20	0x3e6fd782	0.23422053
21	0x3ee838d2	0.4535585
22	0x3f05b9a9	0.5223642
23	0x3f0926db	0.53574914
24	0x3e50da5c	0.20395797
25	0x3d7282b2	0.059206672
26	0xbe247b16	-0.16062579
27	0x3d3317b6	0.043723784
28	0xbe6535b9	-0.22383775
29	0xbe407889	-0.1879598
30	0xbc34963d	-0.011022148
31	0xbd95cd5d	-0.073145606
32	0x3e573bb8	0.21018875
33	0xbc995225	-0.018715927
34	0xbe0a7b65	-0.13523634
35	0x3e8c3d39	0.2739046
36	0x3e5e0135	0.21680148
37	0x3e0f9103	0.14020161
38	0x3e8026fa	0.25029737
39	0x3ecae0dd	0.39624682
40	0xbe142719	-0.1446804
41	0x3d894585	0.06702713
42	0x3e33e1cd	0.17566605
43	0x3eeba58d	0.46024743
44	0x3f0c615c	0.5483606
45	0xbe263c1c	-0.16233867
46	0x3de504d7	0.11182564
47	0x3e3eac0e	0.18620321
48	0x3ee3d105	0.44495407
49	0x3ebfdd5c	0.3747357
50	0xbdb86e36	-0.09005396
51	0xbd139658	-0.03603205
52	0x3ea8bcaa	0.3295644
53	0x3e324c84	0.17412001
54	0x3e960c32	0.2930618
55	0xbe329204	-0.17438513
56	0x3e36c2e5	0.17847784
57	0x3ee4b820	0.44671726
58	0x3e071775	0.13192542
59	0x3d921006	0.071319625
60	0xbc8b0a46	-0.016972672
61	0x3dd1a781	0.10237027
62	0x3e975e82	0.2956429
63	0x3ee4510b	0.4459308
64	0x3d11441d	0.03546535
65	0xbe24ee55	-0.16106541
66	0x3d98a21c	0.07452795
67	0x3f000481	0.5000687
68	0x3e8ec067	0.27881166
69	0x3c89cde3	0.016821807
70	0xbcd473cc	-0.025934123
71	0x3e985cc9	0.2975829
72	0x3eed239b	0.46316227
73	0x3da79e60	0.081845045
74	0x3e315804	0.17318732
75	0xbe6466f0	-0.22304893
76	0xbdea030c	-0.114263624
77	0xbe6d9417	-0.23201023
78	0x3e04362f	0.12911294
79	0x3d0ad506	0.03389456
80	0xbdd2f2bc	-0.10300204
81	0xbe0e6dac	-0.13909024
82	0xbb20b057	-0.002451917
83	0x3e1b20a4	0.1514917
84	0xbc7bb88a	-0.015363822
85	0xbe18fe58	-0.14940774
86	0xbe43a622	-0.19106343
87	0xbdc987b7	-0.09840339
88	0x3dd9b54d	0.106302835
89	0x3eb252b2	0.34828717
90	0xbd83cb1e	-0.06435226
91	0xbdade398	-0.08490676
92	0x3d76bd99	0.06023941
93	0x3ef17a15	0.47163454
94	0x3e5ee1fb	0.21765892
95	0x3e5557e9	0.20834316
96	0x3ec5147b	0.38492188
97	0x3ecd5c93	0.4010969
98	0x3eeb2607	0.4592745
99	0x3e2d572c	0.16927785
100	0x3e1a9524	0.15095955
101	0xbc141f99	-0.009040737
102	0xbd9e6d85	-0.07735733
103	0xbd3b072a	-0.04566113
104	0x3e720390	0.23634171
105	0xbe331563	-0.17488627
106	0x3da58f55	0.08083979
107	0x3e01f3fc	0.12690729
108	0x3ee181f5	0.44044462
109	0x3e3b038d	0.18263073
110	0xbe43a788	-0.19106877
111	0x3e8be394	0.27322066
112	0x3f24294e	0.64125526
113	0x3f005c03	0.501404
114	0x3e09b6dd	0.13448663
115	0x3eb9d792	0.3629728
116	0x3f07558e	0.5286492
117	0x3f2683cc	0.65044856
118	0x3f2f64c0	0.6851311
119	0x3e971fef	0.2951655
120	0x3ea45c4c	0.32101667
121	0x3dcb21e0	0.099185705
122	0x3f069fc1	0.52587515
123	0x3ede42aa	0.43410236
124	0x3e26ef18	0.16302145
125	0x3e338c46	0.17533979
126	0x3ea13cde	0.3149175
127	0x3eeb5c9f	0.45969102
128	0x3e5f847e	0.21827886
129	0x3e912948	0.28351808
130	0x3ead47fa	0.33843976
131	0x3eb737f7	0.35784885
132	0x3ec92710	0.39287615
133	0x3edfc998	0.4370849
134	0x3e903bec	0.28170717
135	0x3d19a6ec	0.037512705
136	0x3dda68f1	0.10664547
137	0x3ea1c44c	0.31595075
138	0x3eb1a819	0.3469856
139	0xbd43b2c9	-0.047777925
140	0x3d49aac2	0.049235113
141	0xbeaa9b2f	-0.3332152
142	0xbe35d57f	-0.17757224
143	0xbdfcf4b7	-0.12351363
144	0xbd27e66f	-0.040991243
145	0xbe923034	-0.285524
146	0xbecf5064	-0.4049102
147	0xbe8173ea	-0.25283748
148	0x3c3df937	0.011595062
149	0x3e40f095	0.18841775

conv1.0.bias f4 [6]
0	0x3aef5745	0.0018260261
1	0x3d94e4a2	0.07270171
2	0xbc06e728	-0.008233823
3	0x3e01e0d0	0.12683415
4	0xba103972	-0.0005501724
5	0x3d87ac9e	0.06624721

conv2.0.weight f4 [16, 6, 5, 5]
0	0x3d8abf75	0.06774799
1	0xbba18331	-0.0049289693
2	0xbd8b18d0	-0.06791842
3	0x3c6cabe4	0.014445279
4	0x3a29d2aa	0.000647823
5	0x3e16216f	0.14661191
6	0x3dde55ce	0.1085621
7	0xbcf482df	-0.02984756
8	0xbb9329f5	-0.0044910857
9	0x3d9a3c60	0.07531047
10	0x3e02dc47	0.12779342
11	0x3dd7fcff	0.10546302
12	0x3dd5179e	0.10404895
13	0xbd4dbdb8	-0.050229758
14	0xbd534dd1	-0.051587883
15	0xbd0732cb	-0.033007424
16	0x3d619f7f	0.055083748
17	0x3da70d2d	0.0815681
18	0x3e31abf9	0.17350759
19	0x3c1fcc3c	0.009753283
20	0xbd4a611e	-0.049409024
21	0x3d915b10	0.07097447
22	0x3d8fb20c	0.070163816
23	0x3d700164	0.058595076
24	0xbcdb12be	-0.026742335
25	0x3d3aecb9	0.045635913
26	0xbdd2e269	-0.102970906
27	0xbdd7b0b2	-0.10531749
28	0x3d95adb5	0.073085226
29	0x3d0026b2	0.031286903
30	0xbce255c6	-0.02762879
31	0xbd90b11f	-0.07065033
32	0xbdc2191e	-0.09477447
33	0x3da2dab2	0.07951869
34	0xbb356d21	-0.0027683454
35	0x3d9d6e8a	0.07687099
36	0x3d56fbf0	0.05248636
37	0xbd470ebf	-0.048598047
38	0xbdba7072	-0.091034785
39	0xbcd2677c	-0.02568411
40	0xbc250961	-0.010073037
41	0x3dfbe35c	0.12299225
42	0x3d964fc3	0.07339432
43	0x3d22705c	0.039657936
44	0x3d5c6ff8	0.05381772
45	0x3d97c45a	0.07410498
46	0xbc12817d	-0.008942005
47	0x3dbc3cf5	0.09191314
48	0x3d95b31b	0.07309552
49	0xbb92cb9a	-0.0044798376
50	0xbc5d3092	-0.01350035
51	0xbba9aea2	-0.0051782886
52	0xbc51aa13	-0.0127968965
53	0x3c3014f4	0.010747183
54	0x3cb3c12f	0.021942703
55	0x3db94467	0.0904625
56	0xbdcb3995	-0.09923092
57	0xbcd03cd5	-0.025419632
58	0x3b0b46ae	0.0021251845
59	0xbcae7065	-0.021293828
60	0x3d59df6b	0.053191584
61	0xbdb76c13	-0.089561604
62	0x3cfbe671	0.030749531
63	0xbd1dacf4	-0.03849502
64	0x3cb3905a	0.021919418
65	0x3e057ab4	0.13035089
66	0xbca4b5b5	-0.020106176
67	0xbd374df0	-0.04475206
68	0x3d1fd5ce	0.03902226
69	0xbcc595f5	-0.024119357
70	0xbbe0cf9f	-0.006860688
71	0x3d202f7f	0.039107796
72	0x3b699ca9	0.0035646355
73	0xba72e8de	-0.00092662673
74	0xbd5ea7b7	-0.054359164
75	0xbd7f0678	-0.06226203
76	0xbdbe207b	-0.09283539
77	0x3c8aeff1	0.016960116
78	0xbd78e50e	-0.06076532
79	0x3d8e8879	0.06959624
80	0xbda9ff00	-0.083005905
81	0x3d87bd41	0.06627894
82	0x3d61c60d	0.055120517
83	0x3bca7645	0.0061786496
84	0x3d509f46	0.050933145
85	0x3c05a0f6	0.008156052
86	0xbd6da39b	-0.058017354
87	0xbcbe0071	-0.02319357
88	0xbbea63d9	-0.007153016
89	0x3d3d78e7	0.04625788
90	0x3dad32b9	0.0845694
91	0x3c942876	0.0180857
92	0xbd500b4e	-0.05079203
93	0x3da54bd6	0.08071105
94	0xbd20e30f	-0.03927904
95	0x3d43be81	0.0477891
96	0x3d851c7f	0.06499576
97	0x3cae0aed	0.021245444
98	0x3b995cf0	0.0046802685
99	0xbc883b7a	-0.016629923
100	0xbdb16885	-0.08662514
101	0xbe04dff8	-0.12976062
102	0xbe1d9ed6	-0.15392622
103	0xbd46cfb5	-0.04853793
104	0x3d04fcc0	0.032467604
105	0x3c4d4856	0.012529453
106	0xbe0d42da	-0.13795033
107	0xbdba3fdc	-0.090942115
108	0x3d3442aa	0.04400889
109	0xbd5e9e96	-0.054350458
110	0x3d84b972	0.064806834
111	0x3d611da2	0.0549599
112	0x3d271631	0.040792648
113	0xbdbf1ad1	-0.09331287
114	0xbd8de672	-0.069287196
115	0x3de39c05	0.11113743
116	0x3d39103a	0.04518149
117	0xbb9193a4	-0.004442649
118	0xbd5fa2b9	-0.054598544
119	0x3c1ffc1c	0.009764697
120	0x3d971e7f	0.073788635
121	0x3d333b5a	0.043757774
122	0x3d279b8e	0.040919833
123	0x3df6c166	0.120486066
124	0x3b016d43	0.0019748963
125	0x3d127575	0.035756547
126	0xbce5eda2	-0.028067414
127	0x3b967430	0.0045914873
128	0xbd8eed97	-0.069789104
129	0xbce2bf7d	-0.0276792
130	0x3d92550b	0.07145127
131	0xbdb6759e	-0.089091524
132	0xbd1a8403	-0.037723552
133	0xbda2d4a3	-0.079507135
134	0x3c1482ef	0.00906442
135	0x3d3fbbd1	0.046809975
136	0x3d39c9c4	0.045358434
137	0xbc9d6438	-0.019212827
138	0x3c77909d	0.015110162
139	0x3b97b772	0.0046300227
140	0x3d23d17e	0.03999471
141	0x3d700cf7	0.058606114
142	0xbd9493e0	-0.072547674
143	0xbd01b9bc	-0.03167127
144	0xbd8209a3	-0.06349494
145	0x3dcf3e82	0.10119344
146	0x3defcd69	0.11709101
147	0xbc9696d5	-0.01838247
148	0x3d993fe6	0.07482891
149	0x3db1e212	0.086856976
150	0xbc142fe8	-0.009044625
151	0xbda33b32	-0.07970275
152	0xbd6903d4	-0.056888416
153	0x3d6298bf	0.05532145
154	0x3d3653ee	0.044513635
155	0x3d2d194f	0.042260464
156	0x3c607171	0.013698922
157	0xbe04546d	-0.12922831
158	0x3d9c7ebd	0.07641361
159	0x3d9f15b8	0.077678144
160	0x3c7afd8d	0.01531924
161	0x3d4537d2	0.048148938
162	0xbd5c9950	-0.053857148
163	0xbd6c8cf2	-0.057751603
164	0xbc8f71ab	-0.017510256
165	0x3bad8951	0.0052959104
166	0xbd00f99e	-0.031488054
167	0xbda2ae25	-0.07943372
168	0x3cac0457	0.020998163
169	0x3d022271	0.031771127
170	0xbd11f1e5	-0.03563108
171	0x3dad6ef6	0.0846843
172	0x39c67c5f	0.00037858167
173	0xbba29505	-0.004961612
174	0xbd68710a	-0.056748427
175	0xbd1cc003	-0.038269054
176	0xbdadc3a5	-0.08484582
177	0xbd17995c	-0.03701149
178	0x3d5c5a56	0.05379709
179	0xbc3db316	-0.011578342
180	0x3d6ddfa9	0.058074627
181	0xbdc3bf71	-0.09557999
182	0xbd64a877	-0.055824723
183	0x3cb2e4f3	0.021837687
184	0x3dc3c7df	0.09559607
185	0xbd6082b7	-0.05481216
186	0xbaf88124	-0.0018959385
187	0xbdb1ac01	-0.08675385
188	0x3d3868d2	0.04502184
189	0x3ded3994	0.11583248
190	0x3d63513b	0.05549739
191	0xbc31dd32	-0.01085596
192	0xbd20bdac	-0.039243385
193	0x3cde9221	0.027169289
194	0xbdbf6972	-0.09346284
195	0x3d0fc4d8	0.035099834
196	0x3d8143bb	0.06311747
197	0xbd27816a	-0.040894903
198	0xbd34dc50	-0.04415542
199	0xbdafb57f	-0.085795395
200	0xbd9366d7	-0.071973495
201	0xbcb03d8b	-0.021513721
202	0xbda26e8a	-0.0793124
203	0x3de9d3ff	0.11417388
204	0xbca09bf3	-0.019605612
205	0x3d2555f7	0.040365186
206	0xbd8fe37c	-0.07025811
207	0xbd87b4bd	-0.0662627
208	0x3df7bf6c	0.12097058
209	0x3e00829f	0.12549828
210	0x3cb6d5e0	0.02231878
211	0x3d55ca31	0.052194778
212	0xbbcaa48b	-0.006184166
213	0xbd3b4847	-0.045723226
214	0x3d567e55	0.052366573
215	0xbd11bc73	-0.03558011
216	0xbde12bb7	-0.10994666
217	0x3c2bc221	0.010483296
218	0xbd24fdb3	-0.04028101
219	0x3cb5485c	0.02212923
220	0xbd3b76c3	-0.045767557
221	0xbc88954e	-0.016672757
222	0x3d94cf1e	0.07266067
223	0xbd68e67f	-0.056860443
224	0xbd83410f	-0.06408893
225	0xbd4398bc	-0.04775308
226	0xbd6336b0	-0.055472076
227	0xbcc607be	-0.024173614
228	0x3ddd27db	0.107986175
229	0xbd9a8fe9	-0.0754698
230	0xbd1c1e54	-0.03811486
231	0xbd52dc6e	-0.05147975
232	0x3d7df30f	0.061999377
233	0x3dc72c66	0.09725265
234	0xbd8bec73	-0.068322085
235	0xbd90c744	-0.07069257
236	0xbb7242f4	-0.0036966177
237	0xbc845a03	-0.016156202
238	0xbd7570bf	-0.059921976
239	0x3d72c8b6	0.059273444
240	0x3c7ba3ef	0.015358909
241	0xbd69990c	-0.057030722
242	0xbd9eac1a	-0.077476695
243	0xbcf89941	-0.030346515
244	0x3d03ecf5	0.0322084
245	0xbd74bb33	-0.05974884
246	0x3d8576cc	0.06516799
247	0x3d471673	0.048605394
248	0x3dce8f28	0.10085899
249	0xbcf552dd	-0.029946739
250	0x3d771f0d	0.060332347
251	0xbdc7df80	-0.09759426
252	0x3cfd487e	0.030918356
253	0x3dfae45e	0.12250589
254	0x3d968200	0.07349014
255	0xbccfb389	-0.025354164

conv2.0.bias f4 [16]
0	0x3d7f8697	0.062384214
1	0x3c89580e	0.01676562
2	0x3beb00d5	0.00717173
3	0x3d34e7a5	0.044166226
4	0x3cf7074c	0.030154847
5	0xbd53ceaa	-0.051710762
6	0xbd61450c	-0.05499749
7	0xbdd2867f	-0.10279559
8	0x3d911727	0.07084494
9	0x3ccb1157	0.024788542
10	0x3cb2a157	0.021805448
11	0xbca642b7	-0.020295484
12	0xbc849041	-0.016182067
13	0x3d1baaa9	0.03800455
14	0xbd01c77d	-0.031684387
15	0x3d4f3329	0.0505859

fc1.0.weight f4 [120, 400]
0	0xbc0b67e7	-0.008508659
1	0x3c8a00cf	0.016846089
2	0xbb0dbb3c	-0.0021626493
3	0xbd48e8da	-0.04905019
4	0x3cd5a2c5	0.026078591
5	0x3d209352	0.039202996
6	0x3cefc66b	0.029269418
7	0x3ba1b9fd	0.0049355016
8	0xbd55600c	-0.05209355
9	0x3c8ef802	0.017452244
10	0xbcf4262c	-0.029803358
11	0x3b723da2	0.0036963006
12	0xbcd111e7	-0.025521232
13	0x3c1d9325	0.0096176015
14	0x3c5a10ad	0.01330964
15	0x3cd83f74	0.026397444
16	0x3cf42964	0.029804893
17	0xbcc4af76	-0.024009448
18	0xbc35d938	-0.011099152
19	0x3d08572a	0.03328625
20	0x3c49339d	0.012280372
21	0x3d050c7c	0.03248261
22	0x3c9fce5b	0.019507578
23	0xbc6513e6	-0.013981795
24	0x3d331369	0.043719683
25	0xbccf16c4	-0.02527941
26	0x3c7b6479	0.015343779
27	0x3c787122	0.015163692
28	0xbc226c87	-0.00991357
29	0x3d387e18	0.045042127
30	0xbc0b1c20	-0.008490592
31	0x3d0248a0	0.03180754
32	0x3becd9c0	0.0072281063
33	0x3cc9f715	0.02465395
34	0x3cf359de	0.029705938
35	0x3c9eab69	0.019368844
36	0x3cde208f	0.027115135
37	0xbc61d394	-0.013783354
38	0xbd10adaa	-0.03532187
39	0xbc8670db	-0.016411236
40	0xbc4c9665	-0.012487029
41	0xbd1f237d	-0.038852204
42	0x3d0ae873	0.033913087
43	0x3bfc7a22	0.007704989
44	0xbb314904	-0.0027051577
45	0x3d2b8003	0.04187013
46	0xbca859c7	-0.020550622
47	0x3d0a42cb	0.033755105
48	0xbd08a058	-0.03335604
49	0x3cea15c1	0.028574826
50	0xbd572c11	-0.05253226
51	0xbc09347a	-0.008374328
52	0xbbfed8f0	-0.007777326
53	0x3caaa7bf	0.02083194
54	0x3a1a2c2b	0.00058812153
55	0x3d1f5dd6	0.03890785
56	0xbd40b366	-0.047046088
57	0x3cf922ac	0.03041204
58	0x3c8c50b9	0.017128335
59	0x3d3c97ac	0.046043083
60	0xbd0d5cf2	-0.034512468
61	0x3c0cea39	0.008600765
62	0x3cefced2	0.029273424
63	0x3d1234ce	0.03569489
64	0x3d49e39b	0.049289327
65	0x3a8d0b63	0.001076084
66	0x3c6c0c25	0.014407192
67	0x3d18fe3b	0.037351828
68	0x3d2df9d7	0.042474594
69	0xbc3b5955	-0.011434873
70	0x3ae303c5	0.0017319849
71	0x3cd5b89e	0.026089009
72	0xbc99ca42	-0.018773202
73	0x3b671499	0.003526008
74	0x3c7a8a44	0.015291754
75	0x3d1ac0ad	0.037781406
76	0xbc537fce	-0.012908889
77	0xbc83d668	-0.016093448
78	0x3d1adcd3	0.03780825
79	0x3d0a8479	0.033817742
80	0xbc8f5d98	-0.017500684
81	0x3cf5877b	0.029971829
82	0xbcf77400	-0.03020668
83	0x3d623fe8	0.055236727
84	0xbce03929	-0.027371006
85	0xbce2a134	-0.027664758
86	0xbcf6d083	-0.030128723
87	0xbbaf05a0	-0.0053412467
88	0xbd0796c4	-0.033102766
89	0x3b1f9a05	0.0024353277
90	0x3cbabdf4	0.022795655
91	0xbccd8b33	-0.02509079
92	0xbc8af76e	-0.016963687
93	0xbd2b345a	-0.041797973
94	0x3cb8727e	0.022515532
95	0x3cca62a5	0.02470524
96	0x3d2c5839	0.042076323
97	0x3d288a85	0.041147728
98	0xbbe5a34d	-0.0070079924
99	0x3d296438	0.04135534
100	0xbcebf71c	-0.028804354
101	0x3d0f854a	0.035039224
102	0x3bb71f2a	0.005588432
103	0xbd0219b1	-0.031762782
104	0x3d1057c4	0.03523995
105	0xbd36a79d	-0.044593442
106	0x3d4c7543	0.049916517
107	0x3b4d3a4c	0.0031315265
108	0x3c14b621	0.009076626
109	0x3b04df54	0.0020274715
110	0xbd0fb027	-0.0350801
111	0xbcf32be8	-0.029684022
112	0x3b0b22a7	0.0021230371
113	0xbd1de03b	-0.03854392
114	0x3cbed7f7	0.02329634
115	0xbca5c7e6	-0.02023692
116	0x3c80dfe1	0.015731754
117	0x3c3f0b49	0.011660405
118	0x3c979c81	0.018507244
119	0xbd198b75	-0.037486512
120	0xbc217fb8	-0.009857111
121	0x3d1c57f5	0.03816982
122	0xbd0b5270	-0.034014165
123	0x3cd193cf	0.025583176
124	0xb996078c	-0.00028615852
125	0x3c704cb0	0.014666721
126	0xbcd6152e	-0.026133146
127	0x3bcffb90	0.0063471273
128	0xba8ee980	-0.0010903329
129	0xbc3703e9	-0.011170366
130	0x3bf7eb7c	0.0075659137
131	0xbd3e1c75	-0.046413857
132	0xbc95793b	-0.018246284
133	0xbcb4d689	-0.022074955
134	0xbcd38a9a	-0.025822926
135	0x3c0d5f20	0.008628637
136	0xbc927c73	-0.017881608
137	0x3c0e949a	0.008702422
138	0x3ce1910c	0.027534984
139	0xbd0de2f2	-0.03464026
140	0x3d277fc2	0.040893324
141	0xbd065bd6	-0.032802425
142	0xbc96a798	-0.018390462
143	0xbcf746f4	-0.0301852
144	0x3cb540b9	0.022125589
145	0xbd29419b	-0.041322332
146	0xbd14cae2	-0.036326297
147	0x3bfb33cf	0.007666088
148	0x3c0f05e4	0.008729432
149	0x3ca94d33	0.020666694
150	0xbbc14c41	-0.0058989828
151	0x3b9ad9b4	0.0047256593
152	0xbd0cd7a6	-0.034385346
153	0x3d6dd160	0.058061004
154	0xbd0fc08e	-0.035095744
155	0xbcc91bc3	-0.02454937
156	0x3d59bece	0.05316048
157	0xbd3609a1	-0.044442777
158	0xbd131306	-0.035906814
159	0xbc8428b1	-0.016132684
160	0xbc352432	-0.011055993
161	0xbcaa97ec	-0.020824395
162	0x3bb05feb	0.005382528
163	0x3cdb307d	0.02675652
164	0x3c3a3cad	0.011367005
165	0x3bb3e62a	0.005490084
166	0xbce6d876	-0.028179388
167	0x3cf2c230	0.029633611
168	0xbc69153e	-0.014226256
169	0xbb051eea	-0.0020312616
170	0x3c835ef4	0.016036488
171	0xbd2bb323	-0.041918885
172	0xbc00f287	-0.007870323
173	0x3c20860e	0.009797586
174	0x3d2d12bc	0.042254195
175	0x3c8b11fd	0.01697635
176	0xbd2018a6	-0.039086007
177	0x3d1f6a2d	0.038919616
178	0xbcfa56e0	-0.030559003
179	0xbbba1224	-0.005678432
180	0x3d382833	0.044960212
181	0xbcf5914e	-0.029976513
182	0xbd374364	-0.044742003
183	0xbc3993a7	-0.011326707
184	0xbd01bf75	-0.03167673
185	0xbb716b5e	-0.0036837677
186	0xbbc26139	-0.005932
187	0xbd485858	-0.048912376
188	0x3d0787c5	0.033088464
189	0x3d2f6607	0.04282191
190	0xbd04ffbd	-0.032470454
191	0xbd1e3cc0	-0.038632154
192	0xbbb251cd	-0.0054418803
193	0x3d2e3845	0.04253413
194	0xbd20b63e	-0.0392363
195	0xbc7b7f22	-0.015350135
196	0xbb8cfb6e	-0.0043024337
197	0x3d38da68	0.045130163
198	0xbb8f23c3	-0.004368277
199	0x3c88acc3	0.016683942
200	0xbca3dacd	-0.020001793
201	0xbd271993	-0.040795874
202	0xbd2dc7d9	-0.042426918
203	0xbc3159a1	-0.010824592
204	0x3d3ebbc9	0.046565805
205	0xbd08f581	-0.033437256
206	0x3d1926c3	0.03739048
207	0x3c4fe6b6	0.012689283
208	0x3c866134	0.016403772
209	0x3caf064b	0.021365305
210	0xbce85ced	-0.028364623
211	0x3d49c601	0.049261097
212	0x3d43cdc5	0.04780366
213	0xbd2b20f8	-0.04177949
214	0x3d184dba	0.0371835
215	0xbc760d9d	-0.015017894
216	0xbc692062	-0.014228912
217	0x3c399356	0.0113266315
218	0x3ce05411	0.027383836
219	0x3d1dfb0f	0.038569506
220	0x3c4857bc	0.012227949
221	0x3bc4bf0d	0.0060042203
222	0xbcfb2eaa	-0.0306619
223	0xbcdb37eb	-0.026760062
224	0x3b1b4d1a	0.002369708
225	0xbcad8135	-0.021179775
226	0xbcda4caf	-0.026647894
227	0x3d18d8ec	0.037316248
228	0x3d56ec8d	0.052471686
229	0x3d3e2fba	0.046432234
230	0x3d4ad8ad	0.049523044
231	0x3d1330d5	0.03593524
232	0x3cc51929	0.024059849
233	0x3d31f272	0.043444104
234	0xbd2747b1	-0.040839855
235	0x3b46017a	0.0030213282
236	0xbd48544b	-0.048908513
237	0x3b9fe01b	0.0048790104
238	0x3d467b8b	0.048457664
239	0x3d12a777	0.03580424
240	0xbc333b1a	-0.010939384
241	0x3d22069a	0.039557077
242	0xba000a7d	-0.00048843754
243	0x3cee7d37	0.029112441
244	0x3c9d7829	0.019222336
245	0x3d0c2488	0.034214526
246	0xbc8629ca	-0.016377348
247	0x3d4d6a3c	0.05015014
248	0xbd36f684	-0.04466869
249	0xbd374bd6	-0.044750057
250	0x3cf60246	0.030030381
251	0x3d5d3cbb	0.054012995
252	0x3d09f461	0.033680324
253	0x3d233393	0.039844107
254	0x3c791b27	0.0152042275
255	0x3d214b00	0.039378166

fc1.0.bias f4 [120]
0	0x3cf8580f	0.030315427
1	0xbd391734	-0.045188144
2	0x3d4f8a5d	0.050669063
3	0xbd151eec	-0.036406443
4	0xbcbd8331	-0.023133846
5	0xbc337afc	-0.010954615
6	0xbd1d77c0	-0.03844428
7	0x3d99c7c8	0.075088084
8	0xbd2d607f	-0.042328354
9	0xbcf1b4c4	-0.029505141
10	0xbcded753	-0.027202284
11	0x3c83f45f	0.016107736
12	0xbcd3b797	-0.025844378
13	0xba840326	-0.0010071739
14	0x3d498bfd	0.04920577
15	0x3c3f131a	0.011662269
16	0x3b957a3b	0.00456169
17	0x3cc77a28	0.02435024
18	0x3ba83f9e	0.005134537
19	0xbc93d32f	-0.018045036
20	0xbd26f12c	-0.040757343
21	0x3d463e35	0.04839917
22	0x3cbce670	0.0230591
23	0xbce13922	-0.027493063
24	0x3cd453de	0.025918897
25	0xbd4837a3	-0.048881184
26	0x3d07f62a	0.033193745
27	0xbc8eba0d	-0.0174227
28	0x3c26d155	0.010181745
29	0xbc86646e	-0.01640531
30	0xbd3bdb4c	-0.045863435
31	0x3ce6bf6c	0.028167449
32	0xbc4ecc33	-0.012621927
33	0x3d08bc1e	0.033382528
34	0x3c3139b7	0.010816983
35	0x3d186903	0.037209522
36	0x3d0ad1c5	0.033891458
37	0xbc8ac635	-0.016940216
38	0xbd5007e2	-0.050788768
39	0x3d3e5205	0.04646494
40	0xbd030492	-0.03198678
41	0xbd729f85	-0.05923416
42	0x3c790f12	0.015201347
43	0x3bf988e3	0.007615195
44	0xbd38c221	-0.04510701
45	0xbcde5a63	-0.02714271
46	0x3c190008	0.009338386
47	0x3d4cc5b0	0.049993217
48	0x3cb8876d	0.022525514
49	0x3d33eb5a	0.04392562
50	0x3d183681	0.037161354
51	0x3d801571	0.062540896
52	0x3d1e2e89	0.038618598
53	0x3c3067d9	0.010766947
54	0x3d154cb4	0.036450103
55	0x3c3371e3	0.010952446
56	0xbc962a88	-0.018330827
57	0x3d1d1f67	0.038360026
58	0x3d6af336	0.05736085
59	0xbd0bbb50	-0.034114182
60	0xbd0ebecf	-0.034849938
61	0xbcea2b2d	-0.028585041
62	0xbcbd0263	-0.023072427
63	0xbd1fc6c0	-0.039007902
64	0x3c6adf66	0.014335489
65	0x3d0e99ac	0.03481452
66	0x3c98f09f	0.018669425
67	0x3d1cfa7e	0.038324825
68	0xbcd601e6	-0.026123952
69	0xbd493a01	-0.049127582
70	0x3b7b9ac8	0.0038391817
71	0xbd2bcac6	-0.041941427
72	0x3d493278	0.049120396
73	0x3d0eff0f	0.03491121
74	0x3d1c6cd5	0.038189728
75	0x3d339760	0.043845534
76	0x3c58a75d	0.013223496
77	0xbcd438b9	-0.025905954
78	0x3d12647c	0.03574036
79	0x3bf0eb93	0.0073523014
80	0xbcb76bef	-0.022390334
81	0xbcca5ad3	-0.024701511
82	0x3caa1c04	0.020765312
83	0xbcecd00d	-0.0289078
84	0x3b9bc3d0	0.0047535673
85	0x3c78fa5d	0.01519641
86	0xbba0d520	-0.004908219
87	0xbbf123ec	-0.0073590185
88	0xbcd0b36c	-0.02547618
89	0x3cb92512	0.022600684
90	0x3c8e733a	0.017388929
91	0x3ced66d8	0.028979704
92	0xbc319415	-0.010838528
93	0x3d6a76e3	0.057242285
94	0xbcd1808c	-0.025573991
95	0x3bae1846	0.005312952
96	0xbb258e00	-0.002526164
97	0x3ca40fda	0.02002709
98	0x3d2b3675	0.04179998
99	0x3aeae62e	0.0017921382
100	0xbcb8fed6	-0.022582453
101	0x3b35ce58	0.0027741399
102	0xbced4e22	-0.02896792
103	0x3d3cfae4	0.046137705
104	0xbd4e4c35	-0.050365645
105	0x3c78397e	0.015150426
106	0xbd428515	-0.0474902
107	0xbcc078d6	-0.023495119
108	0x3bb650ba	0.0055638226
109	0x3c3b51f9	0.011433118
110	0x3d13abd6	0.036052547
111	0xbcb95873	-0.022625184
112	0xbd33b853	-0.043876957
113	0xbaccb62b	-0.0015618255
114	0xbd3fd2e1	-0.04683197
115	0xbcdaf4fe	-0.02672815
116	0xbcc087b7	-0.023502214
117	0x3c1aea15	0.009455224
118	0x3bfb9618	0.0076778047
119	0x3c5cec2a	0.01348404

fc2.0.weight f4 [84, 120]
0	0x3d1495de	0.036275737
1	0xbdecb010	-0.11557019
2	0xbc9124de	-0.017717775
3	0xbd057cd7	-0.03258976
4	0x3d880c1f	0.06642937
5	0x3b88f9dd	0.0041801766
6	0xbda60cd7	-0.08107918
7	0x3d829f2d	0.063780166
8	0xbbf44ca4	-0.0074554253
9	0x3cf5b6af	0.029994337
10	0x3cc21dde	0.023695882
11	0xbd2359ac	-0.03988044
12	0xbd0000c0	-0.031250715
13	0x3cd1ede7	0.025626136
14	0xbd8037d2	-0.06260647
15	0xbdbc1a5d	-0.09184716
16	0x3dcfd7e3	0.10148599
17	0x3ba01d9c	0.004886342
18	0xbd3e6d1e	-0.04649078
19	0xbd8fe446	-0.070259616
20	0xbd7134e8	-0.058888346
21	0x3da13181	0.0787077
22	0x3ca20c18	0.019781157
23	0x3d019424	0.03163542
24	0xbd50a9ef	-0.05094331
25	0x3d3eda4e	0.04659491
26	0xbd95836e	-0.07300459
27	0xbdb25a6b	-0.08708652
28	0xbdad4057	-0.084595375
29	0x3d0b5b53	0.03402264
30	0xbab7a99c	-0.001401234
31	0xbd6acf1a	-0.057326414
32	0x3d942f79	0.07235617
33	0xbd205bc3	-0.03915001
34	0xbd9ca7a9	-0.07649166
35	0xbc1fe8fa	-0.009760136
36	0xbd87b9f1	-0.066272624
37	0xbd64e729	-0.055884514
38	0xbdabd0b5	-0.08389417
39	0xba9ff2b9	-0.0012203074
40	0xba53f4d0	-0.0008085491
41	0xbd82262f	-0.06354939
42	0x3d260964	0.0405363
43	0x3cc63fa3	0.024200266
44	0x3d2b7d38	0.041867465
45	0x3ccd582d	0.02506646
46	0x3da6882d	0.08131442
47	0xbd81e4aa	-0.06342442
48	0xbda4745d	-0.08030007
49	0x3d74bcb7	0.059750285
50	0x3d86c8b1	0.065812476
51	0xbd8ecfc6	-0.069732234
52	0xbd67557d	-0.056478012
53	0xbdaa1309	-0.08304412
54	0x3d55200e	0.052032523
55	0xbcb26023	-0.021774357
56	0x3d8d9810	0.06913769
57	0x3c5c28e0	0.01343748
58	0x3daec7c0	0.08534193
59	0x39eada84	0.00044794765
60	0x3d46433c	0.048403963
61	0x3dc9505d	0.09829781
62	0xbc16c710	-0.009202734
63	0x3da7c4b0	0.08191812
64	0xbdc26fbc	-0.09493968
65	0xbcd4a47a	-0.025957335
66	0x3c27dad6	0.010245046
67	0x3d9a4a31	0.07533682
68	0xbd691c2d	-0.056911636
69	0x3d1885b7	0.037236895
70	0xbd4987cf	-0.049201783
71	0xbc801228	-0.015633658
72	0xbac0fcdd	-0.0014723797
73	0x3c65a56c	0.01401649
74	0xbd4a94e9	-0.049458418
75	0x3d7f7b58	0.06237349
76	0x3da5a739	0.08088536
77	0xbbff16e2	-0.0077847103
78	0xbc847c58	-0.016172573
79	0xbda1c39f	-0.0789864
80	0x3d3684d9	0.044560287
81	0xbd604d45	-0.05476119
82	0x3d101595	0.035176832
83	0xbc612faa	-0.013744274
84	0xbdd1e79c	-0.10249254
85	0xbc1377d3	-0.009000736
86	0x3cd8c904	0.02646304
87	0x3d462281	0.04837275
88	0xbd308aa1	-0.043100957
89	0xbd07a3ea	-0.033115305
90	0xbc27196d	-0.010198933
91	0xbc030768	-0.007997371
92	0x3d9912fd	0.07474325
93	0xbccbd593	-0.024882114
94	0x3cdc9478	0.026926264
95	0x3c856068	0.016281322
96	0x3d26e8ac	0.040749237
97	0xbd30975c	-0.043113098
98	0xbcc46dd5	-0.023978153
99	0xbc22c8d5	-0.009935577
100	0x3cb584ba	0.022158016
101	0xbd5bfb34	-0.053706363
102	0xbd7c58ea	-0.061608233
103	0xbd15821e	-0.036501043
104	0x3d7ff4a9	0.062489185
105	0x3dc6eeff	0.09713554
106	0xbd3167a3	-0.043311726
107	0xbc71921a	-0.014744306
108	0xbd5b2808	-0.053504974
109	0x3d9078bf	0.070542805
110	0x3d5ec47f	0.054386612
111	0xba86e54d	-0.0010291726
112	0xbcc7a33d	-0.02436983
113	0x3ca3d522	0.01999909
114	0x3d825949	0.06364686
115	0x3d994612	0.07484068
116	0xbd1ca266	-0.038240813
117	0x3d318378	0.04333827
118	0x3c93059d	0.017947013
119	0x3c881f7b	0.016616574
120	0x3da4b0a5	0.08041505
121	0xbc8734cc	-0.016504668
122	0x3e0ca872	0.13736132
123	0xbdcd2aa6	-0.100179
124	0xbd2e425c	-0.042543754
125	0xbcad34e3	-0.021143382
126	0x3dae424c	0.08508739
127	0x3e0006ea	0.12502638
128	0x3d5c91d3	0.053850006
129	0x3d9e10cf	0.0771805
130	0x3c81ae78	0.015830263
131	0x3ccdc059	0.025116133
132	0x3d51c971	0.0512175
133	0x3c1ae683	0.009454372
134	0xbd233f0f	-0.03985506
135	0xbcca8a6e	-0.024724212
136	0x3d678c24	0.056530133
137	0x3dcc5ec5	0.09979013
138	0xbdba1d32	-0.090876
139	0x3d0a9911	0.03383738
140	0x3d087e04	0.033323303
141	0xbd108592	-0.035283633
142	0xbe0a1211	-0.13483454
143	0xbd9f52ef	-0.0777949
144	0x3d84d2ef	0.06485545
145	0x3d44c274	0.048037007
146	0x3bd334de	0.0064455112
147	0xbc8c7a28	-0.017148092
148	0xbc000623	-0.007813963
149	0x3d3e3f28	0.04644695
150	0x3d72ed2e	0.059308223
151	0xbc84a350	-0.016191155
152	0x3d8274de	0.06369947
153	0x3c66a867	0.014078236
154	0xbdadc121	-0.08484102
155	0x3daee68e	0.085400686
156	0xbc44de75	-0.0120159285
157	0xbcd49d2c	-0.025953852
158	0x3db47fe1	0.088134535
159	0x3dec6635	0.11542932
160	0x3e0b959d	0.13631292
161	0xbd8eb046	-0.06967215
162	0x3d643495	0.05571421
163	0xbc9ccc33	-0.019140339
164	0x3db6aef0	0.089200854
165	0x3e1bfc7f	0.15233038
166	0x3d86bbab	0.065787636
167	0xbd8a9ed5	-0.06768576
168	0xbd49b1bb	-0.049241763
169	0x3c3d770f	0.01156403
170	0xbc73a732	-0.014871405
171	0xbd8564c5	-0.06513361
172	0x3db18027	0.08667021
173	0x3d07e315	0.033175547
174	0xbc2794d9	-0.010228359
175	0xbbe8b453	-0.0071015744
176	0xbd1b48e4	-0.03791131
177	0x3dee125c	0.116245955
178	0xbdbe06f9	-0.09278674
179	0xbdf1f95f	-0.11815142
180	0xbd0940bb	-0.033508997
181	0xbcf589d4	-0.029972948
182	0x3dadba0d	0.08482752
183	0x3ca8b125	0.020592282
184	0x3d45630f	0.048190173
185	0xbd4d0e4e	-0.05006247
186	0x3bd2d593	0.0064341514
187	0x3d1f4cd5	0.038891632
188	0x3d0da8de	0.034584872
189	0x3d8b3f2b	0.06799158
190	0xbd1ff50e	-0.03905206
191	0x3bd67ebb	0.006545869
192	0xbd87be4d	-0.06628094
193	0xbdc9141c	-0.09818289
194	0xbcf264f1	-0.029589148
195	0xbd180615	-0.037115175
196	0x3d8a67f9	0.067581125
197	0x3d950cae	0.07277809
198	0xbd090b21	-0.03345788
199	0xbdda3227	-0.10654097
200	0xbd4ca0f8	-0.0499582
201	0xbd0d922f	-0.03456324
202	0xbdff01bf	-0.12451505
203	0x3d7c5e08	0.061613113
204	0xbd192ace	-0.037394337
205	0xbd94b167	-0.07260399
206	0xbd864f0d	-0.065580465
207	0xbc2ded85	-0.010615711
208	0x3a63e67c	0.00086937076
209	0xbc6adae6	-0.014334416
210	0xbc04e5fc	-0.008111473
211	0x3d855aa2	0.065114275
212	0xbdd11b03	-0.1021023
213	0x3d87c3f8	0.06629175
214	0xbd93f7ce	-0.07224999
215	0x3d9d048f	0.07666885
216	0x3d3b76ec	0.04576771
217	0x3d0e68a9	0.03476778
218	0xbca1731f	-0.019708214
219	0xbcead812	-0.028667483
220	0xbc95b387	-0.018274082
221	0xbd138eb3	-0.03602476
222	0x3d575010	0.052566588
223	0x3c4ad12b	0.012378971
224	0x3d5257df	0.05135333
225	0xbd4c5055	-0.049881298
226	0xbcce1649	-0.02515711
227	0xbd8043ac	-0.062629074
228	0xbbfffeb4	-0.0078123454
229	0xbacdffc4	-0.0015716483
230	0xbd14799e	-0.036248796
231	0x3d858009	0.065185614
232	0xbd0ffd2f	-0.035153564
233	0xbd6ffdb1	-0.05859155
234	0xbd9857bd	-0.0743861
235	0xbda4ae03	-0.080410026
236	0x3d1042ea	0.035220064
237	0x3d4f15e4	0.050557986
238	0x3d208371	0.039187852
239	0x3db61faa	0.08892758
240	0x3d02eb0b	0.031962436
241	0xbd4edaea	-0.05050174
242	0x3d394c2c	0.04523866
243	0x3d9a3d64	0.075312406
244	0xbdff8ebb	-0.124783956
245	0xbdbd44e2	-0.09241654
246	0x3dc8cb69	0.098044224
247	0xbdb4cb76	-0.088278696
248	0x3d9ab96f	0.075549
249	0x3d693ad8	0.056940883
250	0x3dbd91bc	0.09256312
251	0x3d1c517d	0.03816365
252	0x3ce529b6	0.02797399
253	0xbd1ba3a2	-0.03799785
254	0xbba69279	-0.005083379
255	0x3e3af5e4	0.18257862

fc2.0.bias f4 [84]
0	0x3b949e8f	0.004535503
1	0xbd5684a3	-0.052372586
2	0x3ca5f766	0.02025957
3	0x3d574d6c	0.05256407
4	0x3d897db2	0.067134276
5	0xbd2e72e3	-0.042590033
6	0xbd20e8b1	-0.03928441
7	0xbd84c5f8	-0.06483072
8	0xbcb36b17	-0.02190165
9	0x3ba536a4	0.005041914
10	0x3d1b507a	0.037918545
11	0xbc4c3e4f	-0.012466027
12	0x3de3f73c	0.111311406
13	0xbd846a7d	-0.064656235
14	0x3dc5fc0d	0.096672155
15	0x3d3b7891	0.045769278
16	0x3d113b74	0.03545709
17	0xbcfb7fa1	-0.030700507
18	0xbd1a3e92	-0.037657328
19	0xbdb56c9d	-0.08858607
20	0x3d3414bd	0.04396509
21	0x3db4553e	0.08805321
22	0x3d9cd167	0.07657128
23	0xbd9273d2	-0.07150997
24	0x3d6ec54c	0.058293626
25	0xbdb0dc2a	-0.08635743
26	0x3d940155	0.072268166
27	0xbd58feea	-0.05297748
28	0xbc803b86	-0.015653383
29	0x3d40a790	0.0470348
30	0xbd65a6ec	-0.056067392
31	0xbdaacab8	-0.08339447
32	0xbca9ce10	-0.020728141
33	0xbc8cb912	-0.017178092
34	0xbd65dbcf	-0.05611783
35	0x3d9a7788	0.0754233
36	0xbbf6fb31	-0.0075372686
37	0x3ba79f45	0.005115422
38	0xbd9dd052	-0.077057496
39	0xbd842fce	-0.064544305
40	0xbd66438d	-0.056216765
41	0x3d8bfa16	0.068348095
42	0x3c0c1148	0.008549042
43	0xbd3a76f7	-0.04552361
44	0xbd292f88	-0.041305095
45	0xbbfe0288	-0.0077517666
46	0x3cbd2e64	0.02309341
47	0x3c8e7982	0.017391924
48	0x3dc62442	0.096748844
49	0x3c6b59f9	0.014364713
50	0x3d05341c	0.0325204
51	0xbd20124d	-0.039079953
52	0xbd90ea69	-0.0707596
53	0x3da0bc7e	0.07848452
54	0x3d83b0ba	0.06430192
55	0x3bac2108	0.005252961
56	0x3c004dc0	0.007831037
57	0x3da81d66	0.08208732
58	0x3d42f086	0.047592662
59	0x3dca9cee	0.09893213
60	0x3db8904c	0.090118974
61	0xbdb3e815	-0.087845005
62	0x3dc4539f	0.09586262
63	0x3d4d48f5	0.050118405
64	0xbb9e43be	-0.004829853
65	0xbbd1c333	-0.0064014434
66	0xbd349316	-0.044085585
67	0x3dc116f8	0.09428209
68	0x3d3e68b3	0.046486568
69	0x3db0f966	0.08641319
70	0x3d94c8ab	0.07264837
71	0x3d3fec5b	0.046856266
72	0xbc9ae041	-0.01890576
73	0x3d2ebef4	0.042662576
74	0xbd304666	-0.043035887
75	0x3d76390a	0.06011299
76	0x3d90f298	0.07077521
77	0x3c07a802	0.008279802
78	0x3dc11243	0.09427311
79	0xbdb34b9b	-0.08754655
80	0x3dd89c05	0.10576633
81	0xbc662631	-0.0140471915
82	0xbcdbb172	-0.026818011
83	0x3d532c11	0.051555697

fc3.weight f4 [10, 84]
0	0xbda00134	-0.078127295
1	0x3d32c245	0.0436423
2	0x3e5f76e8	0.21822703
3	0x3e07695e	0.13223788
4	0x3d78d4c3	0.06074978
5	0x3dad92cd	0.08475266
6	0xbb8607c4	-0.004090281
7	0xbb5d2074	-0.0033741267
8	0xbd75dc2c	-0.060024425
9	0x3dc45562	0.09586598
10	0x3d979413	0.0740129
11	0x3d160a58	0.03663096
12	0x3eaad673	0.33366737
13	0xbd608e58	-0.05482325
14	0x3e1830bb	0.14862339
15	0x3e72750e	0.23677465
16	0xbe05249b	-0.13002245
17	0xbcf0a4d0	-0.029375464
18	0x3dea6b96	0.11446302
19	0xbdc162cd	-0.09442673
20	0x3dce3cf3	0.10070219
21	0x3e137dce	0.1440346
22	0x3e0d3c74	0.13792592
23	0x3cee415c	0.0290839
24	0x3c8bbe19	0.017058419
25	0x3d4186a8	0.04724756
26	0xbdacc1e6	-0.08435421
27	0xbd15696a	-0.036477484
28	0x3c0a4e69	0.008441546
29	0xbe8cad6c	-0.2747606
30	0xbd8b616f	-0.06805693
31	0x3d1852fc	0.037188515
32	0x3d4e7f72	0.05041451
33	0xbd32816a	-0.04358045
34	0x3dd0d590	0.10196984
35	0x3dd30e33	0.10305443
36	0x39c1f21a	0.00036992208
37	0xbdf6fea7	-0.1206029
38	0x3c85f470	0.016351908
39	0x3d6f75ce	0.058461957
40	0xbd6e6f0d	-0.058211375
41	0xbcaf7a59	-0.021420645
42	0xbdf0fa6f	-0.117665164
43	0xbdaef77a	-0.08543296
44	0xbe02026b	-0.12696235
45	0xbdd47961	-0.10374714
46	0xbe6eb410	-0.23310876
47	0x3c85e207	0.01634313
48	0x3dc0d7ee	0.09416185
49	0x3b3bdb70	0.002866473
50	0xbd86e1f5	-0.06586067
51	0xbd1d983a	-0.038475253
52	0x3deb6094	0.1149303
53	0x3df92280	0.121647835
54	0x3d2dda00	0.04244423
55	0x3dd9cefe	0.10635184
56	0x3e0b7ea4	0.13622528
57	0x3e74e997	0.23917232
58	0x3d27e083	0.040985595
59	0xbe4de838	-0.20108116
60	0xbd8f6ae4	-0.0700281
61	0xbd1a4fb8	-0.037673682
62	0xbd3dde43	-0.046354543
63	0x3d3bc507	0.045842197
64	0xbdb331d8	-0.08749741
65	0x3e3e1a49	0.18564714
66	0xbe27bbe2	-0.16380265
67	0xbea0a1cd	-0.31373444
68	0xbe4625e6	-0.19350395
69	0xbcb68ef7	-0.022284968
70	0xbd9735f3	-0.07383337
71	0xbd19d7a2	-0.03755916
72	0xbe111a6c	-0.14170235
73	0xbe2637d9	-0.16232242
74	0x3e091519	0.13386954
75	0xbde7581b	-0.11296102
76	0x3ce2ed5f	0.027701078
77	0xbd6013da	-0.054706432
78	0x3d9fff0c	0.07812318
79	0x3b8a12b3	0.004213655
80	0x3cd772bb	0.026299825
81	0xbc36e665	-0.011163329
82	0x3e76e4e9	0.2411076
83	0xba4d4ba2	-0.00078313996
84	0x3cc8c7b2	0.024509285
85	0xbe069a9d	-0.13144918
86	0xbe06bfca	-0.13159099
87	0xbe356dfe	-0.1771774
88	0xbe2c8cd6	-0.168506
89	0xbb9473f9	-0.0045304266
90	0xbe09139e	-0.1338639
91	0x3dd10b11	0.10207189
92	0x3da8e373	0.082465075
93	0xbc84d1c1	-0.0162133
94	0xbe01e265	-0.12684019
95	0xbd5bd1bc	-0.053666815
96	0x3d012745	0.03153159
97	0xbde16626	-0.110058114
98	0xbe2d4152	-0.16919449
99	0xba5ba536	-0.00083788054
100	0x3da0d306	0.078527495
101	0xbe00e44d	-0.1258709
102	0x3d058ae0	0.032603145
103	0x3d9894ef	0.07450282
104	0xbcc7a30e	-0.024369743
105	0x3e02d999	0.1277832
106	0xbdf6a3f9	-0.12042994
107	0x3d4f3ed4	0.050597027
108	0xbde03431	-0.10947455
109	0xbb87978c	-0.004137939
110	0xbdd5ce6b	-0.10439762
111	0x3e4bf77c	0.19918627
112	0xbdabbdd5	-0.08385817
113	0xbc08edee	-0.008357508
114	0x3d1486b7	0.036261287
115	0x3d548186	0.051881336
116	0x3d81d616	0.06339662
117	0xbe592fc2	-0.21209624
118	0xbdc83927	-0.09776526
119	0x3d6fe779	0.05857036
120	0x3d3c66e1	0.04599655
121	0x3e525c6c	0.20543069
122	0xbd5d0367	-0.053958323
123	0x3c660908	0.014040239
124	0xbe3d6b9d	-0.18498082
125	0xbe437bc2	-0.19090179
126	0x3d844717	0.06458872
127	0x3d949a62	0.07256009
128	0xbb13a31a	-0.0022527636
129	0x3e741216	0.23835024
130	0xbd346eb9	-0.044050906
131	0xbdb2b086	-0.087250754
132	0x3e6f3cd2	0.23363045
133	0x3e16cc83	0.14726453
134	0xbde0f7df	-0.10984778
135	0xbd36137a	-0.044452168
136	0xbd0df0e5	-0.034653563
137	0xbe3976f9	-0.1811179
138	0x3ec2c248	0.3803885
139	0xbdd6020a	-0.10449608
140	0x3da0898e	0.078387365
141	0xbd4b1808	-0.049583465
142	0xbe47faec	-0.19529313
143	0x3e5529ca	0.20816723
144	0xbdd2a35c	-0.102850646
145	0x3dd48abe	0.103780255
146	0x3aa27782	0.0012395235
147	0x3e389913	0.18027143
148	0x3e35dc39	0.1775979
149	0x3de5f685	0.112286605
150	0xbe1cd5a8	-0.15315878
151	0x3e062d84	0.131033
152	0xbe21c0f1	-0.15796258
153	0xbe28e1d6	-0.164924
154	0x3dd7a29b	0.105290614
155	0x3d158070	0.03649944
156	0x3dd35c74	0.103203684
157	0xbd39fa2f	-0.04540461
158	0xbc5a2c27	-0.013316191
159	0x3e770457	0.2412275
160	0xbe58fdce	-0.21190569
161	0xbcbf2fee	-0.023338284
162	0x3e40d9c3	0.1883307
163	0x3dc4cad0	0.09608996
164	0x3d1992fd	0.037493695
165	0x3d7bd01c	0.061477765
166	0x3cf82a37	0.030293567
167	0x3c9cc20a	0.019135494
168	0xbd9a1c53	-0.07524934
169	0x3e20d5c9	0.15706553
170	0xbe04f796	-0.12985072
171	0xbe0c7899	-0.1371788
172	0x3e0566ea	0.1302754
173	0x3cd1684c	0.025562428
174	0x3dcbb0b2	0.09945811
175	0x3d8f26a9	0.06989796
176	0x3dc4d8a1	0.09611631
177	0x3e7e83f5	0.24855025
178	0xbc59c981	-0.013292671
179	0x3c686a6b	0.014185528
180	0x3e203041	0.15643407
181	0x3e59451f	0.21217774
182	0xbe2766c6	-0.16347799
183	0x3cae0329	0.021241741
184	0xbd52dd14	-0.051480368
185	0x3de2b232	0.11069144
186	0x3dbcefe8	0.09225446
187	0x39ea1747	0.000446493
188	0x3cc2ee93	0.023795402
189	0x3e0b4320	0.13599825
190	0x3d74a196	0.059724413
191	0x3d0f3ed6	0.034972034
192	0x3e8df7d5	0.27728143
193	0x3db59d68	0.088679135
194	0x3dc9aa14	0.09846893
195	0x3d87ef00	0.066373825
196	0x3da5ab3f	0.08089303
197	0x3d73f4b4	0.05955954
198	0xbe1658dd	-0.14682336
199	0x3dca8117	0.09887903
200	0x3c4bf063	0.012447449
201	0x3e315567	0.17317735
202	0xbd995237	-0.07486384
203	0x3df379f7	0.11888497
204	0x3cfb3d45	0.030668864
205	0xbe7b7b79	-0.2455882
206	0x3dbcee34	0.09225121
207	0xbdaffc73	-0.08593073
208	0xbcce0825	-0.025150368
209	0xbe4eea2a	-0.20206514
210	0xbe903f2d	-0.281732
211	0x3d835838	0.06413311
212	0xbbcfd656	-0.0063426895
213	0x3e79c574	0.24391729
214	0xbe2ae82b	-0.16690128
215	0x3e62973a	0.22128001
216	0x3c3b55f2	0.011434065
217	0x3e4c556e	0.19954464
218	0x3de7c884	0.11317542
219	0x3daf9379	0.0857305
220	0x3e2f0f55	0.17095692
221	0xbd0338f9	-0.032036755
222	0x3d753629	0.059866104
223	0xbd1a3457	-0.03764757
224	0x3e2a5d5e	0.1663718
225	0x3df75626	0.120769784
226	0xbd49e07d	-0.049286354
227	0xbe228e7d	-0.15874667
228	0xbea12d47	-0.31479856
229	0x3dc95995	0.098315395
230	0xbd01fb8d	-0.03173404
231	0x3e2fb4a2	0.1715875
232	0xbd562da2	-0.052289613
233	0xbe4768c5	-0.1947356
234	0x3e662202	0.2247391
235	0x3e005cf8	0.12535465
236	0xbe8c0792	-0.27349526
237	0xbe962274	-0.2932316
238	0xbd47f074	-0.0488133
239	0x3cf7181c	0.030162863
240	0xbde41aa6	-0.11137895
241	0xbd5ef6cd	-0.054434586
242	0xbc4fd28f	-0.012684478
243	0xbe14789a	-0.14499131
244	0xbe4b7114	-0.19867355
245	0xbddadfef	-0.10687243
246	0xbe286aa9	-0.16446938
247	0x3d865a8f	0.065602414
248	0x3c141861	0.0090390155
249	0xbcdf9f64	-0.027297683
250	0xbb491de6	-0.0030687987
251	0x3cfa9382	0.030587915
252	0xbda64691	-0.08118928
253	0xbda87de2	-0.08227135
254	0xbd79449d	-0.06085645
255	0x3d53c578	0.051701993

fc3.bias f4 [10]
0	0xbd438e96	-0.047743402
1	0x3dce92ba	0.100865796
2	0xbdb62480	-0.088936806
3	0x3b6f20b9	0.003648801
4	0x3d4f3db4	0.050595954
5	0xbc087cfc	-0.00833058
6	0xbc591109	-0.01324869
7	0x3dd343b9	0.103156514
8	0xbd97ad87	-0.074061446
9	0xba8ab177	-0.0010581453
