LeNet/pages/LeNet/LeNet_GPU.pth (torch_old, 248672 bytes, 10 tensors)

conv1.0.weight f4 [6, 1, 5, 5]
0.09355897 0.27832633 0.41645795 0.3439677 0.12906033 0.25036758 0.6209975 0.55815953
0.38264862 -0.072195336 0.5156393 0.570607 0.7949955 0.6116184 0.32436848 0.06605996
0.6137837 0.7451931 0.555469 0.41821927 -0.05047191 0.314352 0.08895685 0.124725655
0.28516704 0.29355788 0.35845563 0.28671888 0.14119746 0.122329116 0.28489217 0.14303437
0.28972852 0.017404687 0.20920251 0.035572134 -0.16810407 0.0035149679 0.03466665 0.06993035
-0.059487224 -0.14030601 -0.0005330998 -0.037439182 -0.11166429 -0.12530427 -0.22823517 -0.24690385
-0.09637658 0.10279695 -0.11857898 0.04316004 0.1163162 -0.1067678 -0.026844967 -0.03032268
0.08693167 -0.14525558 0.15496528 0.25312373 -0.018279333 -0.20033777 0.008012456 0.23897174
0.2741695 -0.18885456 -0.025792396 -0.0076476457 0.34668982 0.20744997 0.21988985 0.0811319
0.036171332 -0.02038857 0.22403859 -0.16206914 -0.25020444 -0.107226476 0.0010143173 -0.027667183
-0.091754586 -0.034177307 0.2436383 0.25262463 0.310411 0.2551385 0.1998524 0.1164457
0.32720122 0.22197662 0.3259704 0.37670854 0.207602 0.010089508 -0.037599068 0.064342566
0.02836776 0.2699451 -0.06567085 0.11789293 -0.10985832 0.06462401 -0.09566467 0.104467906
-0.053064767 0.18172646 0.2120963 -0.047016043 0.16105205 0.12191233 0.14519812 0.37190145
0.34952703 0.039235324 0.25494123 0.29027107 0.13686347 -0.067465074 -0.0633246 -0.07401585
-0.16409644 -0.08576692 -0.15740341 -0.12293647 -0.08981722 -0.0038303523 0.31752133 0.36358064
0.08887515 -0.16653289 0.33900437 0.124354124 0.4058561 -0.14534715 -0.25585514 0.23347346
0.24793582 0.05225796 0.29022032 -0.18127742 -0.003589257 -0.01398611 0.28146282 0.23910314
-0.017083682 0.134189 0.11160499 0.03885603 0.11159351 0.20044562
00000000: d89b bf3d ca80 8e3e fa39 d53e 891c b03e
00000010: 6428 043e 2e30 803e b1f9 1e3f 8be3 0e3f
00000020: 85ea c33e 26db 93bd f000 043f 4d13 123f
00000030: d384 4b3f 0693 1c3f a013 a63e 724a 873d
00000040: ee20 1d3f fac4 3e3f 3733 0e3f d620 d63e
00000050: a2bb 4ebd bff2 a03e 022f b63d 2a70 ff3d
00000060: 6a01 923e 384d 963e 7f87 b73e d1cc 923e
00000070: 1196 103e b087 fa3d 63dd 913e 9a77 123e
00000080: 4c57 943e 4694 8e3c 2f39 563e 16b4 113d
00000090: 7923 2cbe 605b 663b 9efe 0d3d a537 8f3d
000000a0: e0a8 73bd 61ac 0fbe b9bf 0bba d459 19bd
000000b0: 3fb0 e4bd c34f 00be 7bb6 69be 5dd4 7cbe
000000c0: 1661 c5bd 3587 d23d 89d9 f2bd 95c8 303d
000000d0: 3037 ee3d 14a9 dabd fae9 dbbc 4567 f8bc
000000e0: 3b09 b23d e1bd 14be 38af 1e3e 6f99 813e
000000f0: 8abe 95bc 5825 4dbe ad46 033c 02b5 743e
00000100: f25f 8c3e 1763 41be 934a d3bc 1a99 fabb
00000110: 5481 b13e c46d 543e ce2a 613e 7b28 a63d
00000120: 6428 143d ee05 a7bc 5f6a 653e 74f5 25be
00000130: cc1a 80be 8e99 dbbd d7f2 843a 4aa6 e2bc
00000140: d4e9 bbbd 81fd 0bbd 527c 793e 0458 813e
00000150: 31ee 9e3e 83a1 823e 1ca6 4c3e 157b ee3d
00000160: eb86 a73e d74d 633e 98e5 a63e f1df c03e
00000170: 9e95 543e 774e 253c 7b01 1abd 09c6 833d
00000180: 8163 e83c 3f36 8a3e 707e 86bd d971 f13d
00000190: 66fd e0bd 9859 843d d7eb c3bd 45f3 d53d
000001a0: 715a 59bd 8016 3a3e c62f 593e e593 40bd
000001b0: d4ea 243e 2cad f93d d1ae 143e de69 be3e
000001c0: 35f5 b23e 38b5 203d a887 823e 699e 943e
000001d0: f025 0c3e 212b 8abd 54b0 81bd 9f95 97bd
000001e0: e608 28be 91a6 afbd 5c2e 21be 1ec6 fbbd
000001f0: 17f2 b7bd a606 7bbb 2892 a23e 3e27 ba3e
00000200: 2d04 b63d 9987 2abe fb91 ad3e 60ad fe3d
00000210: 5fcc cf3e e2d5 14be 72ff 82be ab13 6f3e
00000220: e3e2 7d3e 710c 563d c297 943e caa0 39be
00000230: bd39 6bbb ff25 65bc e51b 903e 74d7 743e
00000240: 14f3 8bbc d768 093e 2891 e43d 8027 1f3d
00000250: 238b e43d 9e41 4d3e

conv1.0.bias f4 [6]
-0.00029270787 0.08537394 0.04946587 0.01662492 0.00035858923 0.101906344
00000000: 9676 99b9 88d8 ae3d b99c 4a3d fc30 883c
00000010: 0801 bc39 46b4 d03d

conv2.0.weight f4 [16, 6, 5, 5]
-0.034032855 -0.1228139 -0.017774373 0.050481122 0.08963734 -0.040498257 -0.07773335 0.17126472
0.12370147 0.15244034 0.08280285 0.13330361 0.13207418 0.16436489 -0.10107021 0.03906374
0.19449529 0.05744674 -0.105666116 -0.21417241 -0.0123987375 -0.054701064 0.00912826 -0.14968064
-0.123123765 0.019426765 0.047481 -0.076615274 -0.032593016 -0.06609534 -0.053098466 -0.064105965
-0.06934934 -0.001854115 0.008113909 0.02416213 0.00833628 0.016039366 0.014941389 0.0059098457
0.023023441 0.065624885 -0.020077005 0.115844995 -0.04245022 -0.0020254222 0.032525662 -0.055147678
-0.06453407 0.036166873 -0.06156831 -0.03963301 0.07709397 0.112152226 0.07884733 -0.043533083
0.10528737 -0.018962765 0.0661471 -0.07866747 0.030871969 0.055443145 0.06141868 -0.04599648
-0.099656165 0.048409257 0.020081107 -0.07516609 -0.12242693 -0.024333892 0.025020365 0.037957426
-0.01319643 0.039290916 -0.05087358 -0.044879567 -0.05355395 -0.05068264 0.06643638 0.12553622
-0.06092591 -0.042229082 0.15429476 0.066898406 0.13979654 0.0711126 0.15685399 0.07560383
0.0065904907 -0.028429292 0.035552748 0.039726656 0.03292651 -0.049192026 -0.09054093 -0.070321254
0.03163766 -0.082569405 -0.0005659572 -0.05512391 0.0026978147 0.020649035 -0.11746858 -0.06479921
-0.029840771 -0.0034900142 -0.0960829 0.024736743 0.12140891 0.02749048 0.06313406 0.033755746
0.09488879 0.05731885 0.030885905 0.085128345 0.09898055 -0.054160055 -0.060992748 -0.022675013
0.026555922 -0.06524254 0.001441693 -0.003600703 -0.085414134 -0.026088383 -0.014732372 -0.009320168
-0.019600429 -0.010376382 -0.060895126 -0.096100375 0.03150039 0.07648831 0.099062294 -0.007439873
-0.091227345 0.041186415 0.06814149 0.016622629 -0.062286448 0.026157077 0.103074424 0.059779175
0.02083903 -0.07090639 0.03765359 0.046039846 -0.10950307 -0.0548665 0.013916637 0.06896741
-0.10204018 -0.18503527 -0.15475227 0.11160519 0.32700697 0.33349937 0.30880213 0.16726741
0.11563265 0.10017116 0.26685205 0.31723997 0.2905505 -0.2653957 -0.26537415 -0.32362363
-0.2801579 -0.1664379 -0.1059811 -0.14601915 -0.2250753 -0.14036824 -0.10081319 -0.03992499
-0.0034607507 0.032598395 -0.10844916 -0.02414352 -0.013981591 0.047022123 -0.08028455 -0.061682835
-0.0520727 0.036372803 0.084015496 0.23707287 0.2214758 0.14612347 0.04994603 0.0643421
0.11107321 0.052079894 0.027862394 0.0033227059 -0.016840931 -0.10732318 -0.14382252 -0.04526147
-0.0723676 -0.05730832 -0.10643623 -0.05123471 0.00625416 0.02709608 0.113739476 0.082702644
0.04993504 0.018317709 -0.06851646 0.022284726 0.0036205628 -0.07105461 -0.024862394 -0.07251266
-0.124507144 0.010963749 0.04561957 0.026160086 -0.016300257 0.017923545 -0.07052902 -0.007306455
-0.054293636 -0.048860367 0.00090329285 -0.0946528 -0.0344144 0.018716428 0.11552883 0.0930252
0.1494123 0.16006954 0.17550646 0.02041605 0.12917393 0.08333617 0.022237472 -0.035627745
-0.13543995 -0.041129634 -0.038058266 -0.12358732 -0.09226287 0.0581387 -0.044701867 -0.054380868
0.100379325 0.022043057 0.017281435 0.011760471 -0.08169562 -0.045952164 -0.091938846 0.0042762067
00000000: 0966 0bbd db85 fbbd 909b 91bc 4bc5 4e3d
00000010: c893 b73d 80e1 25bd aa32 9fbd 0560 2f3e
00000020: 3257 fd3d 5219 1c3e 8a94 a93d be80 083e
00000030: 743e 073e 454f 283e e6fd cebd 4d01 203d
00000040: c629 473e 464d 6b3d 7a67 d8bd 0350 5bbe
00000050: 1324 4bbc 390e 60bd b38e 153c e245 19be
00000060: 5028 fcbd e124 9f3c 707b 423d 78e8 9cbd
00000070: 4180 05bd fe5c 87bd c77d 59bd fd49 83bd
00000080: 0707 8ebd c705 f3ba 33f0 043c a9ef c53c
00000090: e494 083c fd64 833c bacc 743c 61a7 c13b
000000a0: a89b bc3c 5766 863d 8878 a4bc 2440 ed3d
000000b0: 48e0 2dbd f2bc 04bb a139 053d 88e2 61bd
000000c0: 702a 84bd b723 143d 0d2f 7cbd 3956 22bd
000000d0: 71e3 9d3d 11b0 e53d b57a a13d bf4f 32bd
000000e0: e8a0 d73d cd57 9bbc 2178 873d 691c a1bd
000000f0: 36e7 fc3c 5a18 633d 2792 7b3d ce66 3cbd
00000100: 8818 ccbd c948 463d 2281 a43c aef0 99bd
00000110: f8ba fabd df57 c7bc 82f7 cc3c 3f79 1b3d
00000120: d735 58bc 83ef 203d d160 50bd a3d3 37bd
00000130: 635b 5bbd 9a98 4fbd cc0f 883d 918c 003e
00000140: 728d 79bd 67f8 2cbd 72ff 1d3e 0802 893d
00000150: d326 0f3e 7ca3 913d 559e 203e 2ed6 9a3d
00000160: 0bf5 d73b 8ce4 e8bc c29f 113d 6bb8 223d
00000170: f3dd 063d 947d 49bd 866d b9bd 9704 90bd
00000180: 7e96 013d 261a a9bd bf5c 14ba 9cc9 61bd
00000190: d2cd 303b 2a28 a93c 5e93 f0bd 73b5 84bd
000001a0: a274 f4bc b9b8 64bb 1dc7 c4bd b6a4 ca3c
000001b0: 3ca5 f83d b733 e13c 6e4c 813d 7743 0a3d
000001c0: 0e55 c23d 2cc7 6a3d 7004 fd3c c557 ae3d
000001d0: 51b6 ca3d efd6 5dbd 88d3 79bd f3c0 b9bc
000001e0: ce8b d93c e19d 85bd 31f7 bc3a c6f9 6bbb
000001f0: 9bed aebd 4eb7 d5bc 0c60 71bc 9eb3 18bc
00000200: 1491 a0bc b301 2abc 2b6d 79bd 46d0 c4bd
00000210: 8e06 013d e7a5 9c3d 2ce1 ca3d 2eca f3bb
00000220: 67d5 babd 16b3 283d c48d 8b3d 2e2c 883c
00000230: 1320 7fbd 5e47 d63c af18 d33d 02db 743d
00000240: 9db6 aa3c 5f37 91bd a73a 1a3d 4794 3c3d
00000250: 2543 e0bd b2bb 60bd 9b02 643c c93e 8d3d
00000260: 71fa d0bd e379 3dbe 6177 1ebe 4391 e43d
00000270: 756d a73e 6ec0 aa3e 501b 9e3e 2648 2b3e
00000280: d0d0 ec3d 8a26 cd3d d5a0 883e 476d a23e
00000290: 09c3 943e f2e1 87be 1fdf 87be ffb1 a5be
000002a0: db70 8fbe b26e 2abe 9e0c d9bd 0b86 15be
000002b0: 247a 66be b1bc 0fbe 2577 cebd 6388 23bd
000002c0: c3cd 62bb e585 053d 981a debd a2c8 c5bc
000002d0: 0b13 65bc 459a 403d 3a6c a4bd 24a7 7cbd
000002e0: 2f4a 55bd a6fb 143d 5110 ac3d 3bc3 723e
000002f0: 8dca 623e 64a1 153e 3594 4c3d cac5 833d
00000300: 5a7a e33d ba51 553d ad3f e43c c1c1 593b
00000310: fef5 89bc 41cc dbbd 3646 13be 1764 39bd
00000320: 7735 94bd 21bc 6abd 3dfb d9bd 7ddb 51bd
00000330: b2ef cc3b 99f8 dd3c 3ef0 e83d 0160 a93d
00000340: af88 4c3d 050f 963c 5c52 8cbd 758e b63c
00000350: f746 6d3b 1485 91bd 38ac cbbc 8481 94bd
00000360: 9afd febd 4ca1 333c 96db 3a3d ad4d d63c
00000370: 1e88 85bc 66d4 923c 8571 90bd fd6a efbb
00000380: 0163 5ebd cf21 48bd f5ca 6c3a 54d9 c1bd
00000390: 1df6 0cbd 3253 993c 619a ec3d ff83 be3d
000003a0: 8aff 183e 45e9 233e f7b7 333e 8f3f a73c
000003b0: 2c46 043e 27ac aa3d 5c2b b63c 66ee 11bd
000003c0: c5b0 0abe 8c77 28bd fce2 1bbd 591b fdbd
000003d0: 51f4 bcbd d822 6e3d 4e19 37bd 79be 5ebd
000003e0: ad93 cd3d a493 b43c cc91 8d3c feae 403c
000003f0: 0950 a7bd 5638 3cbd 6f4a bcbd 6c1f 8c3b

conv2.0.bias f4 [16]
0.046071846 0.013267979 -0.01761933 0.056172814 0.09518337 -0.011052648 -0.03809887 -0.055576008
-0.044431616 -0.06896507 0.024363989 0.07433578 -0.028341338 0.044971768 0.07071512 -0.062392667
00000000: d5b5 3c3d f061 593c 6a56 90bc 7715 663d
00000010: 80ef c23d 2a16 35bc 900d 1cbd aba3 63bd
00000020: edfd 35bd 8f3d 8dbd fd96 c73c 5c3d 983d
00000030: 182c e8bc 5134 383d 17d3 903d 748f 7fbd

fc1.0.weight f4 [120, 400]
0.019293744 -0.043068197 -0.021807194 -0.00716393 -0.020408316 -0.035452917 0.02321891 0.017809741
-0.018111933 -0.04669293 0.025443405 0.038880184 -0.014006806 0.006017575 0.030601697 0.007179903
0.025735201 0.003059957 0.019035079 -0.0058348496 -0.049475905 -0.002312887 0.04159147 -0.026704922
0.049202338 0.041866213 -0.034519125 -0.005307223 -0.035454813 0.03135462 -0.026402302 -0.040611237
-0.011682043 -0.0037944398 -0.040826924 -0.045041703 0.047620576 -0.018263048 0.015557399 0.014264904
0.042246506 -0.02074391 0.033442624 0.04056293 -0.045445193 -0.032311846 0.027011555 0.02252553
-0.032735154 0.023093201 0.03883748 -0.0047623473 -0.020288639 -0.021688871 -0.0020342057 -0.0027632092
0.028443987 0.025491824 0.049956102 0.024932608 -0.02345405 0.0056524705 0.008730486 -0.029421018
0.04470374 0.0039938856 0.028688103 0.0314216 0.037738904 0.0053754104 -0.013785496 0.023310086
-0.008881441 -0.013961387 0.028774401 0.029177526 0.0437824 -0.008239166 0.043728735 0.002554499
0.041218027 0.0032276146 -0.0048893495 -0.029611459 -0.0025721993 0.022461778 -0.0039608288 -0.047104936
-0.013810617 -0.025811227 0.013735938 0.024941405 -0.016185718 -0.026495904 0.031460926 -0.010753365
-0.038981274 -0.017527632 -0.020021927 -0.03359059 0.022541625 -0.02532396 -0.026638376 -0.00611687
-0.021852765 0.0015059259 -0.023893738 -0.0022420986 -0.0014184054 -0.01702503 -0.017369786 -0.030788677
0.030945025 0.008973432 -0.02928844 0.039825793 -0.0018683008 0.0077269115 -0.033999775 0.01914556
-0.003436972 0.012092135 -0.024450174 0.006190974 0.0047714515 -0.019747281 0.0010226081 -0.045788705
-0.04243621 -0.024432227 -0.0042545605 0.0238705 0.011845847 0.0132276965 -0.02417085 -0.00010910385
-0.00066544354 0.0043188953 0.031018166 -0.014564534 0.03096652 0.0140111605 -0.0028911345 0.016778981
-0.0040465877 0.002384195 -0.03118781 -0.043593843 -0.04851981 -0.014368912 0.0013562875 -0.010111146
-0.008375923 -0.011662679 -0.028085748 0.028372852 0.036349878 0.027499078 0.040277973 -0.005346923
0.032455143 0.043985646 0.0018938668 -0.04848013 -0.019649995 -0.03922399 0.0069077834 0.037860308
-0.01353053 0.018505674 -0.016875513 0.03556159 -0.04097914 -0.004772883 0.037558924 0.01605832
-0.035682324 -0.03875693 -0.015407695 0.020749228 -0.022780648 -0.016936036 0.0324363 -0.012839075
-0.036481958 -0.026592007 0.02316494 -0.023925046 0.015730273 0.048095964 0.022849614 0.034772974
0.043507837 0.04136974 -0.039976873 -0.046269614 0.010650739 0.036609292 0.035802856 -0.00925517
-0.019419579 -0.036901977 -0.0131416 0.043468706 0.024026124 0.025305135 -0.04344338 -0.00046797784
-0.042567763 0.017526668 0.027731994 0.01126097 -0.024603745 0.032531388 -0.041512523 -0.009395964
0.0049936203 0.030004377 -0.029749095 0.04594556 -0.03395295 0.0048571397 -0.008544685 -0.018993573
-0.035323482 0.03782653 0.023916528 0.0032828886 0.002829904 0.03693565 0.034248736 -0.024238192
0.017418873 0.024982968 0.047081 -0.03961142 0.03837448 -0.009849605 -0.046217963 0.01551734
-0.025898328 -0.014495225 0.04100155 -0.026092596 -0.048011478 -0.01954156 0.029042127 0.018253118
0.01285918 -0.038895078 -0.024340702 0.024707261 -0.047629148 -0.0421098 0.014347804 -0.029362747
00000000: ea0d 9e3c 4768 30bd 00a5 b2bc 67bf eabb
00000010: 572f a7bc 1437 11bd 9535 be3c bce5 913c
00000020: 7a5f 94bc 1641 3fbd b06e d03c d440 1f3d
00000030: cd7c 65bc 142f c53b 69b0 fa3c 6445 eb3b
00000040: a1d2 d23c 8f89 483b 74ef 9b3c 4432 bfbb
00000050: 3fa7 4abd ce93 17bb d15b 2a3d 48c4 dabc
00000060: 6488 493d e87b 2b3d ed63 0dbd 37e8 adbb
00000070: 1139 11bd b46d 003d a449 d8bc f857 26bd
00000080: 0a66 3fbc 23ac 78bb 223a 27bd a67d 38bd
00000090: cb0d 433d 639c 95bc 76e4 7e3c 58b7 693c
000000a0: ac0a 2d3d 22ef a9bc 22fb 083d 5125 263d
000000b0: bd24 3abd 6d59 04bd 5647 dd3c 7687 b83c
000000c0: 4c15 06bd f42d bd3c 0d14 1f3d 770d 9cbb
000000d0: 5c34 a6bc dcac b1bc 4f50 05bb f516 35bb
000000e0: 5d03 e93c 3bd4 d03c c59e 4c3d 783f cc3c
000000f0: b522 c0bc 5c38 b93b 500a 0f3c 5904 f1bc
00000100: 451b 373d 24df 823b 5003 eb3c f0b3 003d
00000110: 1c94 1a3d 3624 b03b 90dc 61bc cbf4 be3c
00000120: 7783 11bc 4dbe 64bc 4bb8 eb3c b505 ef3c
00000130: 2d55 333d 91fd 06bc e71c 333d 6269 273b
00000140: 3cd4 283d 6386 533b d636 a0bb bb93 f2bc
00000150: 5892 28bb c301 b83c d7c9 81bb 1bf1 40bd
00000160: ed45 62bc 1172 d3bc b30c 613c eb51 cc3c
00000170: e997 84bc f00d d9bc 2cdd 003d e22e 30bc
00000180: d4aa 1fbd 1c96 8fbc 0605 a4bc 4996 09bd
00000190: 37a9 b83c 3274 cfbc b938 dabc 0670 c8bb
000001a0: 9204 b3bc 7d62 c53a cdbc c3bc 2cf0 12bb
000001b0: cae9 b9ba 1378 8bbc 154b 8ebc 8938 fcbc
000001c0: 6c80 fd3c 4d05 133c 4fee efbc 5f20 233d
000001d0: c6e1 f4ba 0832 fd3b 5943 0bbd 26d7 9c3c
000001e0: d23e 61bb 171e 463c bb4b c8bc a7dd ca3b
000001f0: d659 9c3b 0dc5 a1bc 0909 863a f08c 3bbd
00000200: 97d1 2dbd 1826 c8bc d769 8bbb 118c c33c
00000210: 1515 423c fbb8 583c f201 c6bc afce e4b8
00000220: 2971 2eba 8585 8d3b cf19 fe3c 15a0 6ebc
00000230: 80ad fd3c 118f 653c 3079 3dbb 1374 893c
00000240: 3d99 84bb 2840 1c3b 947d ffbc 758f 32bd
00000250: b5bc 46bd 966b 6bbc 75c5 b13a 38a9 25bc
00000260: 2b3b 09bc d214 3fbc 1514 e6bc 2f6e e83c
00000270: 9ce3 143d bf45 e13c 84fa 243d 3e35 afbb
00000280: afef 043d 4b2a 343d a03b f83a 1a93 46bd
00000290: 07f9 a0bc 56a9 20bd b05a e23b 6913 1b3d
000002a0: 28af 5dbc 3699 973c 843e 8abc 08a9 113d
000002b0: bed9 27bd d865 9cbb 63d7 193d bd8c 833c
000002c0: a127 12bd 96bf 1ebd 8f70 7cbc 49fa a93c
000002d0: 7b9e babc 71bd 8abc eddb 043d fc5a 52bc
000002e0: 1b6e 15bd 7bd7 d9bc 66c4 bd3c 75fe c3bc
000002f0: c6dc 803c 4600 453d 1d2f bb3c 1b6e 0e3d
00000300: 4635 323d 5173 293d cabe 23bd 3585 3dbd
00000310: 7080 2e3c a0f3 153d 04a6 123d ffa2 17bc
00000320: cf15 9fbc 8726 17bd de4f 57bc 3e0c 323d
00000330: 6fd2 c43c b74c cf3c b0f1 31bd ec5a f5b9
00000340: 895b 2ebd 1694 8f3c 352e e33c ee7f 383c
00000350: cb8d c9bc a23f 053d 0909 2abd 88f1 19bc
00000360: 86a1 a33b bdcb f53c 60b4 f3bc 6931 3c3d
00000370: 4012 0bbd a428 9f3b 02ff 0bbc 6998 9bbc
00000380: 5baf 10bd feef 1a3d 98ec c33c bb25 573b
00000390: e975 393b d649 173d 6748 0c3d 2c8f c6bc
000003a0: 06b2 8e3c 15a9 cc3c 02d8 403d 963f 22bd
000003b0: 8f2e 1d3d 3d60 21bc 0c4f 3dbd 713c 7e3c
000003c0: bb28 d4bc 617d 6dbc 3ef1 273d 24c0 d5bc
000003d0: afa7 44bd 9f15 a0bc c1e9 ed3c 9087 953c
000003e0: 4faf 523c 7250 1fbd 2766 c7bc e266 ca3c
000003f0: c816 43bd 537b 2cbd 0d13 6b3c 258a f0bc

fc1.0.bias f4 [120]
-0.002191888 -0.012907475 0.017772548 -0.0038545346 -0.035706524 0.004063056 0.01494205 0.0043742987
-0.0072948383 0.0042880345 0.011096751 -0.020612013 0.018281987 -0.002688912 -0.0016221479 0.04501607
0.0035794214 -0.048062816 -0.008670985 -0.046131607 0.03498334 0.04576887 -0.036035053 0.043245655
-0.034704294 -0.026136177 0.014615667 -0.04851167 -0.041730758 0.032278813 0.0130249495 0.0057826755
0.054667972 -0.0069253137 0.044458095 0.0068258727 -0.03451172 -0.018473119 0.0036805773 0.033313118
0.043076202 -0.035395354 0.009368323 -0.03601171 0.03105134 -0.029570632 0.013915356 0.03574758
0.017051589 -0.0067842416 -0.03302778 -0.025467735 0.0558677 0.0029540334 0.018646963 0.014685499
-0.046098184 0.043334126 -0.032849908 -0.040355347 0.014646167 -0.040373184 0.020345509 -0.006396084
-0.038068097 -0.010810925 0.02869999 -0.019731326 0.0140233785 -0.022445908 0.05875376 0.018924141
-0.033963766 0.010596797 0.038175583 0.008853842 -0.019159565 -0.00012207618 -0.04207564 0.009865078
-0.03082835 -0.041261233 0.064633526 0.0043495703 -0.01602577 0.03517562 -0.038705997 0.0434332
0.073683426 0.05106027 -0.01630884 -0.02360973 0.045856304 0.020561084 0.024175819 -0.008246138
0.013381933 0.02394568 0.028523218 0.023198277 -0.016662594 -0.0095072 -0.00956467 -0.015005964
-0.04111902 -0.009293576 0.026366387 -0.004080618 -0.016894555 -0.051023994 0.01676141 0.06354989
0.013723743 0.015485256 -0.030999271 0.03374789 0.008957738 0.00032184937 -0.008312341 -0.013790673
00000000: c7a5 0fbb e079 53bc bc97 913c 5c9c 7cbb
00000010: 0141 12bd 6223 853b 80cf 743c 4756 8f3b
00000020: 8a09 efbb a482 8c3b 26cf 353c 86da a8bc
00000030: 1bc4 953c 7538 30bb 409e d4ba c562 383d
00000040: ba94 6a3b 84dd 44bd bf10 0ebc 7ff4 3cbd
00000050: b14a 0f3d 2378 3b3d 7e99 13bd 5b22 313d
00000060: 1726 0ebd 891b d6bc 8d76 6f3c 2cb4 46bd
00000070: dfed 2abd ca36 043d 9966 553c 997c bd3b
00000080: 86eb 5f3d beed e2bb b119 363d 92ab df3b
00000090: 295c 0dbd f054 97bc d735 713b 5673 083d
000000a0: ac70 303d b8fa 10bd 987d 193c 0481 13bd
000000b0: 615f fe3c 1c3e f2bc 3cfd 633c 0e6c 123d
000000c0: c6af 8b3c 584e debb 2348 07bd b6a1 d0bc
000000d0: 88d5 643d 7598 413b 84c1 983c 729b 703c
000000e0: 73d1 3cbd 207f 313d a08d 06bd a64b 25bd
000000f0: 7af6 6f3c 5a5e 25bd a0ab a63c 3e96 d1bb
00000100: 4bed 1bbd 4e20 31bc 3e1c eb3c 97a3 a1bc
00000110: 50c2 653c 7be0 b7bc c8a7 703d cd06 9b3c
00000120: 971d 0bbd 309e 2d3c 005e 1c3d b40f 113c
00000130: 85f4 9cbc 9301 00b9 8257 2cbd 23a1 213c
00000140: bc8b fcbc 8a01 29bd 955e 843d d786 8e3b
00000150: 7a48 83bc 5014 103d 2e8a 1ebd 03e7 313d
00000160: 56e7 963d 9324 513d 1e9a 85bc 3169 c1bc
00000170: d2d3 3b3d b86f a83c 5e0c c63c cf1a 07bc
00000180: e53f 5b3c bb29 c43c 86a9 e93c 500a be3c
00000190: fe7f 88bc 16c4 1bbc 22b5 1cbc 93db 75bc
000001a0: 6b6c 28bd 1544 18bc 52fe d73c b4b6 85bb
000001b0: 7366 8abc 89fe 50bd 394f 893c 7226 823d
000001c0: 8dd9 603c dfb5 7d3c 2ff2 fdbc 3a3b 0a3d
000001d0: 7ac3 123c e4bd a839 7c30 08bc 46f2 61bc

fc2.0.weight f4 [84, 120]
0.06858449 0.05523024 -1.4125817e-05 0.054758247 0.025475174 0.041034885 0.086309485 0.045067854
-0.07462576 -0.07689736 0.019647626 0.039157838 -0.0621119 0.0027096954 0.036059495 0.061092943
-0.06539613 -0.016008371 0.009003494 0.03442713 0.023090096 0.025210354 -0.046787508 0.1116022
-0.03320303 -0.0725374 0.055795856 0.030210424 0.009578945 -0.12665401 0.047425088 0.044450898
0.131351 0.035108 -0.06489636 0.049961433 0.08343131 0.031534884 0.058762193 0.023869503
0.03227951 -0.08268895 -0.006685282 -0.05380671 0.010728423 -0.06210148 -0.016460553 0.08386986
0.038582202 -0.06290741 0.03688636 -0.047280863 0.049208466 0.014548688 -0.047671363 0.09071337
-0.09539246 -0.049826827 0.0002351735 -0.049691938 -0.058674365 -0.01649971 0.038601615 0.052152492
0.055547863 0.07141203 -0.06803576 -0.0466236 0.024403822 -0.009718093 0.061434995 0.052849166
-0.075466625 -0.07867579 -0.028064903 -0.023803284 -0.020053789 0.055804785 0.06664567 -0.01964286
0.123957284 -0.048793517 -0.063309304 -0.010931343 0.018879004 0.077486604 0.07676811 0.06526211
0.003854191 0.030604944 0.0101459855 -0.007053499 0.054460883 0.0692003 -0.056516267 -0.08281838
0.025316656 0.088550225 0.08606226 0.10355765 0.023903696 0.00015612127 0.054535586 -0.020937748
0.012086935 -0.00601188 0.054828193 0.037764028 0.08566371 0.0421668 0.10808868 -0.08002657
0.055636212 -0.017015338 -0.08399027 -0.00640373 0.06434383 0.023719866 0.070499554 -0.086751
-0.0746443 -0.025111461 0.054501917 0.10774774 0.031558733 -0.036827367 0.0897664 0.06104389
-0.069943175 0.09638846 0.08209319 -0.012124633 0.036788594 0.083075926 0.038772713 0.040057346
0.0649502 0.04305367 -0.070565626 -0.022164024 -0.0034699445 0.053183556 -0.10277523 -0.07560554
0.043194775 -0.0053112046 0.0799797 0.07566957 -0.06551248 0.05826067 -0.10108083 -0.028989624
-0.020945624 -0.09890005 -0.0541274 0.012924513 -0.06309914 0.041251834 -0.009153779 0.116293535
-0.0028937869 -0.02845896 0.00724029 0.0626925 -0.04296308 -0.04217001 -0.07718218 0.077573374
-0.0375385 0.08547336 -0.018083317 0.04445632 0.08230999 -0.07753641 -0.020484151 -0.06847125
0.039862882 -0.04878417 -0.07847243 -0.067103535 0.09948453 0.073459424 0.119365565 -0.048047084
0.07349153 -0.013066385 0.0286058 0.06387957 0.032323178 0.030302169 0.010076748 -0.013642969
-0.07450379 -0.04337909 0.014135794 0.024824753 0.019378694 0.095360264 0.095662475 -0.068296485
-0.029657548 0.056605045 -0.045284454 0.056416176 0.0075756237 0.050249804 -0.014152087 0.06460282
-0.06990303 0.0023069354 -0.066479415 0.105037235 -0.0070507172 -0.035874743 0.0865449 0.043177936
0.07944667 -0.029115275 0.015744353 -0.027284738 0.021323234 -0.062439457 -0.0044350284 0.023861669
-0.063764066 0.028341375 -0.046044644 -0.049986295 0.017651955 0.11999751 -0.074083954 0.040898126
-0.08765834 -0.09417816 -0.07897528 -0.019093998 0.044658776 0.10217126 -0.052491017 -0.015936315
0.0041526295 -0.08439857 -0.09355695 0.06494438 0.012497426 -0.06844128 -0.04616164 0.010284408
-0.082189426 -0.029313909 -0.062369246 -0.0075599453 0.07571345 -0.0021738068 0.050595447 0.01610458
00000000: 0676 8c3d 1b39 623d ecfd 6cb7 2f4a 603d
00000010: 50b1 d03c 3214 283d 07c3 b03d 1299 383d
00000020: 64d5 98bd 5d7c 9dbd 0ff4 a03c f863 203d
00000030: 0c69 7ebd 2595 313b 1fb3 133d 983c 7a3d
00000040: 68ee 85bd fd23 83bc 6483 133c 7603 0d3d
00000050: 7127 bd3c f285 ce3c 42a4 3fbd b28f e43d
00000060: e6ff 07bd 7d8e 94bd 328a 643d da7b f73c
00000070: 02f1 1c3c 97b1 01be cf40 423d 2512 363d
00000080: e080 063e 68cd 0f3d 62e8 84bd 5ca4 4c3d
00000090: 09de aa3d b92a 013d a0b0 703d fa89 c33c
000000a0: 8537 043d d358 a9bd 3610 dbbb 6d64 5cbd
000000b0: 44c6 2f3c 1f5e 7ebd 48d8 86bc f6c3 ab3d
000000c0: 5f08 1e3d 9ad5 80bd 2716 173d 94a9 41bd
000000d0: d18e 493d 9f5d 6e3c 0c43 43bd eec7 b93d
000000e0: 1f5d c3bd 3717 4cbd e898 7639 c689 4bbd
000000f0: 8854 70bd 662a 87bc ba1c 1e3d da9d 553d
00000100: 2886 633d 7840 923d 5556 8bbd 63f8 3ebd
00000110: 86ea c73c a338 1fbc 43a3 7b3d 5e78 583d
00000120: 3f8e 9abd c620 a1bd 5ee8 e5bc 1bff c2bc
00000130: d847 a4bc 8f93 643d 867d 883d 10ea a0bc
00000140: 51dd fd3d b6db 47bd 4fa8 81bd 6019 33bc
00000150: 24a8 9a3c 4cb1 9e3d 9938 9d3d 24a8 853d
00000160: 9896 7c3b 38b7 fa3c 593b 263c 0a21 e7bb
00000170: 6012 5f3d e3b8 8d3d 9a7d 67bd af9c a9bd
00000180: e064 cf3c d259 b53d 6941 b03d 0916 d43d
00000190: afd1 c33c 7cb4 2339 b560 5f3d a485 abbc
000001a0: 4808 463c 4eff c4bb 8793 603d 74ae 1a3d
000001b0: 7570 af3d 18b7 2c3d 995d dd3d f8e4 a3bd
000001c0: cce2 633d c063 8bbc 1703 acbd 61d6 d1bb
000001d0: b3c6 833d 2a50 c23c 1262 903d 82aa b1bd
000001e0: 1cdf 98bd 8db6 cdbc 673d 5f3d d9aa dc3d
000001f0: bb43 013d 4bd8 16bd 72d7 b73d 2809 7a3d
00000200: 5e3e 8fbd 5067 c53d 7920 a83d 66a6 46bc
00000210: a3af 163d b623 aa3d 23d0 1e3d 2c13 243d
00000220: 9c04 853d 0c59 303d b684 90bd 5491 b5bc
00000230: 0268 63bb 00d7 593d d27b d2bd 14d7 9abd
00000240: 01ed 303d 9d09 aebb 66cc a33d a6f8 9a3d
00000250: 682b 86bd bea2 6e3d 7703 cfbd a67b edbc
00000260: 2896 abbc 1c8c cabd b1b4 5dbd 56c1 533c
00000270: 1f3a 81bd aff7 283d bbf9 15bc 4e2b ee3d
00000280: b0a5 3dbb c422 e9bc f43f ed3b ed64 803d
00000290: 0efa 2fbd 76ba 2cbd b111 9ebd cade 9e3d
000002a0: f8c1 19bd a80c af3d 7723 94bc d517 363d
000002b0: 2492 a83d 69cb 9ebd 61ce a7bc a83a 8cbd
000002c0: 4347 233d e9d1 47bd 27b6 a0bd 946d 89bd
000002d0: 8cbe cb3d e571 963d ef75 f43d 05cd 44bd
000002e0: ba82 963d 6414 56bc b656 ea3c 4bd3 823d
000002f0: 4f65 043d 413c f83c f218 253c c286 5fbc
00000300: 7195 98bd 46ae 31bd d199 673c 485d cb3c
00000310: 11c0 9e3c 3e4c c33d b0ea c33d 07df 8bbd
00000320: 63f4 f2bc b1da 673d 317c 39bd a614 673d
00000330: f03c f83b bdd2 4d3d 28de 67bc 7c4e 843d
00000340: 5229 8fbd f42f 173b 5c26 88bd c31d d73d
00000350: b409 e7bb 65f1 12bd 743e b13d 59db 303d
00000360: f0b4 a23d 2883 eebc 4dfa 803c 3e84 dfbc
00000370: 10ae ae3c 84c0 7fbd b753 91bb 8c79 c33c
00000380: bc96 82bd 2c2c e83c 4f99 3cbd 6ebe 4cbd
00000390: d59a 903c 41c1 f53d 54b9 97bd cb84 273d
000003a0: 3786 b3bd 7be0 c0bd cbbd a1bd 046b 9cbc
000003b0: 1fec 363d 2a3f d13d d200 57bd e08c 82bc
000003c0: c812 883b 28d9 acbd c99a bfbd 8f01 853d
000003d0: 01c2 4c3c f12a 8cbd fd13 3dbd ef7f 283c
000003e0: ee52 a8bd b923 f0bc e576 7fbd 6bb9 f7bb
000003f0: a70f 9b3d 6d76 0ebb 2c3d 4f3d c1ed 833c

fc2.0.bias f4 [84]
0.045557536 -0.09093969 0.077753395 0.10189558 0.08984494 0.051319517 0.06989548 -0.0512054
0.003459075 0.090565205 -0.058223125 -0.022355115 0.08723521 -0.08981142 0.07975529 -0.036561616
-0.07653147 -0.0064162654 -0.05295675 0.070475206 -0.029156147 -0.001975713 0.050375875 -0.07512969
0.06381028 -0.04998913 0.09695536 0.0162254 0.03445251 0.05234104 -0.00893711 0.030802596
-0.084983945 0.022200517 -0.054043893 0.025679048 -0.0594571 -0.05921155 -0.027169243 0.084848806
-0.07886665 -0.08450642 0.025092425 0.034782723 -0.08948275 0.035345506 0.020372996 -0.074058965
0.031216696 0.031074673 -0.0024525328 0.12270996 -0.04697755 -0.06829262 -0.03130629 -0.0666064
-0.025712764 0.0043667373 -0.07398003 -0.0061462875 0.015986545 0.10902016 0.04564714 0.010714329
-0.021746207 0.0043758256 -0.057699822 0.04373589 0.075024396 0.03819894 0.0108086215 0.04409654
0.010446483 0.031801607 -0.07580806 0.034000114 0.06478342 0.08571784 -0.0050964854 0.08409363
-0.056077767 0.08469973 0.090129144 -0.08747219
00000000: 8a9a 3a3d 973e babd 2c3d 9f3d a1ae d03d
00000010: a000 b83d 6a34 523d 5d25 8f3d c1bc 51bd
00000020: a6b1 623b 407a b93d 5f7b 6ebd 1322 b7bc
00000030: 60a8 b23d 0def b7bd be56 a33d a2c1 15bd
00000040: 88bc 9cbd 893f d2bb 2de9 58bd 4e55 903d
00000050: dfd8 eebc f77a 01bb ef56 4e3d 98dd 99bd
00000060: f7ae 823d 67c1 4cbd 8890 c63d 21eb 843c
00000070: 131e 0d3d 8f63 563d f56c 12bc ba55 fc3c
00000080: 100c aebd dcdd b53c 215d 5dbd de5c d23c
00000090: 4a89 73bd cf87 72bd 0892 debc 36c5 ad3d
000000a0: d784 a1bd b411 adbd a18e cd3c 5478 0e3d
000000b0: bb42 b7bd 73c6 103d 45e5 a63c 3aac 97bd
000000c0: 28ba ff3c 5090 fe3c acba 20bb 5c4f fb3d
000000d0: 886b 40bd 00dd 8bbd 063b 00bd f068 88bd
000000e0: 93a3 d2bc d916 8f3b d882 97bd cc66 c9bb
000000f0: 37f6 823c f645 df3d 7ff8 3a3d 278b 2f3c
00000100: 1a25 b2bc 1663 8f3b a656 6cbd 6824 333d
00000110: 64a6 993d 7e76 1c3d a516 313c 939e 343d
00000120: ba27 2b3c 6742 023d 4241 9bbd b443 0b3d
00000130: 2bad 843d d68c af3d 6b00 a7bb 4839 ac3d
00000140: cdb1 65bd 0d77 ad3d a195 b83d 9f24 b3bd

fc3.weight f4 [10, 84]
-0.03926625 0.14651172 0.036755797 0.011028875 0.08912644 -0.20560403 0.005140045 -0.0029284211
-0.076198764 -0.08942195 0.02898651 0.033225585 -0.16843927 -0.044432145 0.04118718 -0.06837962
0.08394562 -0.0628845 -0.01920921 -0.1609564 0.16132917 0.09287409 -0.14314629 -0.12884729
-0.13786651 0.12424865 -0.061988115 -0.24187554 0.11717966 -0.08979216 -0.07289777 0.017303888
-0.098444596 0.05260982 -0.11147425 -0.05156927 -0.160043 -0.046241585 0.0583923 -0.16680385
0.026091931 -0.03670664 -0.04456734 0.0056290585 -0.14535639 -0.0030575257 0.04191742 0.14179571
0.1163091 0.01126632 -0.11052884 -0.05334092 0.041478433 -0.14744447 0.0015609495 -0.08076107
-0.020080918 0.07663046 0.0028549226 0.08938605 -0.042373154 -0.07859854 0.122045845 -0.11709474
0.10802412 -0.056847997 -0.08670012 0.1377122 0.20313586 0.07430197 0.009458078 -0.22310728
-0.09376987 0.13494901 0.12719281 -0.17216553 0.1418227 0.11143557 0.18371448 0.04748904
-0.05046635 0.17194913 -0.17488411 -0.14506526 0.027692614 -0.011398446 0.12030083 0.18256113
-0.07904155 0.2582121 -0.020345798 -0.18200189 0.008087304 0.24798758 -0.09418743 -0.09122965
-0.017222997 0.045103025 0.01414389 -0.03498611 0.042159125 -0.11004547 -0.05746649 0.057932924
-0.16917148 -0.15243052 -0.09279914 -0.09657779 -0.14842232 -0.12527296 0.28571948 0.18507102
-0.14578263 -0.07794093 0.02000168 -0.11093674 0.09501379 0.12561265 0.12469698 -0.18390225
0.14773656 0.00069744885 0.11255367 -0.0795747 -0.038303997 0.17556134 0.08695504 -0.037094004
0.045500293 -0.13127084 -0.18200402 -0.04764795 -0.03690278 -0.13698082 -0.04671301 0.019121826
-0.008122288 0.20046842 -0.25034976 0.049924932 -0.089585364 -0.13151512 -0.100572094 -0.07046329
0.014971683 0.20651153 0.06586059 -0.15496324 -0.092276186 0.0058506792 -0.07529503 -0.09144621
-0.053905547 0.07049855 -0.14929543 0.11747538 0.029430028 -0.1076975 0.18223761 -0.021552984
0.09775334 0.21998811 0.18032283 0.087542556 -0.0892908 0.012300977 0.00017940268 -0.11906253
-0.08920965 -0.007191292 -0.066752456 -0.15682054 0.041373655 0.09901421 0.058454204 -0.16677366
-0.018614236 -0.17126268 0.09006785 0.09613422 0.035817042 -0.088763036 0.023593798 0.035358813
-0.067091234 0.07568705 0.1820905 -0.16736756 0.1596904 -0.06132212 0.07253116 0.103437476
-0.020297436 0.09162788 0.081370875 -0.05427858 0.046516325 0.023164356 0.16329537 0.26324636
-0.026999732 0.022428099 0.19564168 -0.05130633 -0.048681624 0.072332 -0.008464766 0.124951474
0.005855136 -0.09283063 -0.055769794 0.051453643 -0.010862192 -0.047340035 -0.18839443 0.028279709
-0.0959088 0.040184595 -0.13866708 -0.05036667 -0.081299044 0.13912393 -0.1793866 -0.076515846
-0.050464656 0.16478767 0.040216956 -0.11163887 -0.051789228 0.057715077 -0.052884076 -0.013089896
-0.045293175 -0.082866736 0.06529639 0.09926232 0.24176611 -0.09344487 0.078359805 -0.1961399
0.0015629714 -0.043521866 0.006026887 0.3031543 -0.25965792 0.2212227 0.048137065 -0.04370194
0.2735567 0.07527666 -0.016098924 0.059306853 -0.010396988 0.17300417 -0.06945174 0.13199921
00000000: a6d5 20bd 2b07 163e 3f8d 163d 74b2 343c
00000010: ec87 b63d dd89 52be d36d a83b c1ea 3fbb
00000020: 190e 9cbd db22 b7bd 1e75 ed3c 8d17 083d
00000030: 587b 2cbe 7bfe 35bd e3b3 283d 9d0a 8cbd
00000040: aeeb ab3d 97c9 80bd a25c 9dbc c1d1 24be
00000050: 7933 253e c534 be3d f194 12be 8bf0 03be
00000060: e12c 0dbe 1476 fe3d 40e7 7dbd 39ae 77be
00000070: e4fb ef3d f4e4 b7bd 6d4b 95bd e2c0 8d3c
00000080: 529d c9bd 657d 573d 9d4c e4bd 4d3a 53bd
00000090: 50e2 23be d167 3dbd c42c 6f3d a1ce 2abe
000000a0: bfbe d53c b459 16bd 3e8c 36bd f773 b83b
000000b0: 4ed8 14be c560 48bb 9ab1 2b3d e532 113e
000000c0: 7733 ee3d 5f96 383c f25c e2bd 027c 5abd
000000d0: 4ae5 293d affb 16be c698 cc3a 0f66 a5bd
000000e0: bd80 a4bc 6ef0 9c3d a719 3b3b 0910 b73d
000000f0: 798f 2dbd 45f8 a0bd 2cf3 f93d 5ecf efbd
00000100: c03b dd3d 72d9 68bd d58f b1bd 6d04 0d3e
00000110: d902 503e a22b 983d 0ef6 1a3c 3c76 64be
00000120: 6b0a c0bd 1330 0a3e d53e 023e 294c 30be
00000130: f839 113e 5538 e43d a61f 3c3e de83 423d
00000140: ceb5 4ebd 6f13 303e d214 33be fd8b 14be
00000150: 9fdb e23c 8cc0 3abc 4860 f63d 4ef1 3a3e
00000160: 89e0 a1bd 6034 843e 3bac a6bc b45e 3abe
00000170: 9d80 043c 75f0 7d3e 57e5 c0bd 9cd6 babd
00000180: 3e17 8dbc f3bd 383d c6bb 673c 984d 0fbd
00000190: 0caf 2c3d 855f e1bd fb61 6bbd 134b 6d3d
000001a0: 4a3b 2dbe bf16 1cbe 7a0d bebd 94ca c5bd
000001b0: 05fc 17be 8e47 00be d349 923e 4283 3d3e
000001c0: 0b48 15be 7f9f 9fbd 90da a33c cd32 e3bd
000001d0: 9796 c23d 9aa0 003e 2161 ff3d df50 3cbe
000001e0: 4148 173e 00d5 363a 8a82 e63d 0ff8 a2bd
000001f0: a7e4 1cbd 5ac6 333e 7c15 b23d e2ef 17bd
00000200: 845e 3a3d dd6b 06be 435f 3abe 7f2a 43bd
00000210: 5f27 17bd b344 0cbe 2456 3fbd 60a5 9c3c
00000220: 5813 05bc 9847 4d3e d82d 80be 167e 4c3d
00000230: 8878 b7bd e6ab 06be bef8 cdbd 0f4f 90bd
00000240: ca4b 753c c277 533e ebe1 863d afae 1ebe
00000250: 4cfb bcbd 0eb7 bf3b 4834 9abd 2748 bbbd
00000260: 10cc 5cbd 8b61 903d e7e0 18be ef96 f03d
00000270: 3e17 f13c 8290 dcbd 7f9c 3a3e e28f b0bc
00000280: e732 c83d 9044 613e 8ca6 383e 8349 b33d
00000290: 18de b6bd 098a 493c 0a1e 3c39 0ed7 f3bd
000002a0: 8db3 b6bd eea4 ebbb 83b5 88bd 9095 20be
000002b0: 6c77 293d f6c7 ca3d ad6d 6f3d b7c6 2abe
000002c0: e27c 98bc 7c5f 2fbe 7e75 b83d 05e2 c43d
000002d0: e4b4 123d 65c9 b5bd c847 c13c 67d4 103d
000002e0: 2167 89bd d001 9b3d ef75 3a3e 6762 2bbe
000002f0: e185 233e e72c 7bbd 388b 943d 07d7 d33d
00000300: cf46 a6bc 66a7 bb3d c6a5 a63d 3753 5ebd
00000310: e787 3e3d 2dc3 bd3c e736 273e 3ac8 863e
00000320: 8b2e ddbc 22bb b73c 4b56 483e 9626 52bd
00000330: 6266 47bd cd22 943d cdaf 0abc 8fe6 ff3d
00000340: 71dc bf3b fc1d bebd de6e 64bd 0ec1 523d
00000350: 56f7 31bc a0e7 41bd 78ea 40be d9aa e73c
00000360: d56b c4bd 9a98 243d befe 0dbe 484d 4ebd
00000370: 1d80 a6bd 8176 0e3e 1fb1 37be 57b4 9cbd
00000380: 07b4 4ebd 19be 283e 89ba 243d eba2 e4bd
00000390: f120 54bd a566 6c3d f99c 58bd 0177 56bc
000003a0: 5685 39bd 09b6 a9bd 1dba 853d 0b4a cb3d
000003b0: 8991 773e 0660 bfbd 1b7b a03d e6d8 48be
000003c0: 9edc cc3a fc43 32bd 317d c53b 0a37 9b3e
000003d0: e2f1 84be 3488 623e 5f2b 453d ce00 33bd
000003e0: a00f 8c3e a62a 9a3d e4e1 83bc beeb 723d
000003f0: 2158 2abc 0128 313e b73c 8ebd cd2a 073e

fc3.bias f4 [10]
0.02504144 0.20807181 0.012170888 -0.056925714 -0.10298408 0.12107368 -0.04975586 -0.00029256742
-0.12592188 0.06219017
00000000: b523 cd3c c710 553e 6768 473c f02a 69bd
00000010: 51e9 d2bd 7af5 f73d cdcc 4bbd bc63 99b9
00000020: aaf1 00be 1fbb 7e3d
