LeNet/pages/LeNet/LeNet_CPU.pth (torch_old, 248570 bytes, 10 tensors)

conv1.0.weight f4 [6, 1, 5, 5]
0	0xbd82c745	-0.06385664
1	0xbd7935b3	-0.060842227
2	0xbdb6c9ef	-0.089252345
3	0xbe943ead	-0.28954068
4	0xbeb49d35	-0.3527619
5	0x3dd9893c	0.106218785
6	0x3c80c99a	0.015721131
7	0xbe09ca59	-0.13456096
8	0xbe332f32	-0.17498472
9	0xbe9abb0e	-0.30220836
10	0x3ea1c3e2	0.3159476
11	0x3e8fcbbd	0.28085127
12	0x3d9b5dba	0.07586236
13	0xbe2fe4f6	-0.17177185
14	0x391b4654	0.00014808151
15	0x3efd930b	0.49526247
16	0x3f2282a2	0.6348058
17	0x3f2a9086	0.66626775
18	0x3ef18d14	0.47177947
19	0x3ed3d6ef	0.4137492
20	0x3e6d4ff2	0.23175028
21	0x3ee861a1	0.45386985
22	0x3f067974	0.5252907
23	0x3f09cd60	0.53829
24	0x3e51d719	0.2049221
25	0x3d76415c	0.060120925
26	0xbe23adc4	-0.15984255
27	0x3d2e0edf	0.04249465
28	0xbe67cc31	-0.22636487
29	0xbe41f85a	-0.18942395
30	0xbc1f98ac	-0.00974099
31	0xbd922340	-0.0713563
32	0x3e586881	0.21133615
33	0xbc978260	-0.018494785
34	0xbe0a5d9d	-0.13512273
35	0x3e8c5e1f	0.2741556
36	0x3e5f3a33	0.21799545
37	0x3e11dd2a	0.14244524
38	0x3e81b6af	0.2533469
39	0x3ecc1fbd	0.39867964
40	0xbe16b8e9	-0.14718975
41	0x3d875878	0.06608671
42	0x3e34e581	0.17665674
43	0x3eed591b	0.46357045
44	0x3f0d0434	0.5508454
45	0xbe28803b	-0.16455166
46	0x3de37596	0.11106412
47	0x3e3fc8bd	0.1872892
48	0x3ee54b99	0.4478424
49	0x3ec0e231	0.3767257
50	0xbdb86b94	-0.09004894
51	0xbd0e747f	-0.034779068
52	0x3ea9e33d	0.33181182
53	0x3e354580	0.17702293
54	0x3e96acac	0.29428613
55	0xbe318983	-0.17337613
56	0x3e388152	0.18018082
57	0x3ee67890	0.45013857
58	0x3e0aedf6	0.13567337
59	0x3d94f185	0.07272629
60	0xbc8ab40b	-0.016931554
61	0x3dd5d22a	0.10440476
62	0x3e997c59	0.29977682
63	0x3ee5bdb3	0.44871292
64	0x3d1119db	0.03542505
65	0xbe2447ea	-0.16043058
66	0x3d9e6402	0.07733919
67	0x3f011681	0.50424963
68	0x3e8fc5b0	0.2808051
69	0x3c8cff77	0.017211659
70	0xbccf1301	-0.025277616
71	0x3e99a220	0.30006504
72	0x3eeed41e	0.46646208
73	0x3dab6661	0.083691366
74	0x3e30fa0f	0.1728289
75	0xbe64e935	-0.22354586
76	0xbde98718	-0.1140272
77	0xbe6da0fc	-0.23205942
78	0x3e0515bb	0.12996571
79	0x3d1124f7	0.035435643
80	0xbdd584a4	-0.1042569
81	0xbe0f9ee3	-0.14025454
82	0xbb5d6fd4	-0.0033788579
83	0x3e1c6e86	0.15276536
84	0xbc3fb561	-0.011700959
85	0xbe1a2bdf	-0.15055798
86	0xbe44ad14	-0.19206649
87	0xbdc88d5c	-0.09792587
88	0x3de08ca6	0.109643266
89	0x3eb47eb5	0.3525292
90	0xbd85c0d5	-0.065309204
91	0xbdacb501	-0.08432961
92	0x3d82636e	0.06366621
93	0x3ef3fad9	0.4765232
94	0x3e62325c	0.22089523
95	0x3e564d98	0.20928037
96	0x3ec681dd	0.38770953
97	0x3ecf89ab	0.4053472
98	0x3eed2245	0.46315208
99	0x3e2e9cc0	0.17051983
100	0x3e1af72b	0.1513335
101	0xbc09e4b5	-0.008416344
102	0xbd9ffd93	-0.07812037
103	0xbd347f32	-0.044066615
104	0x3e734946	0.2375842
105	0xbe328cfb	-0.17436592
106	0x3da85e8d	0.08221159
107	0x3e0420e7	0.12903176
108	0x3ee439f5	0.44575468
109	0x3e3ec5c8	0.18630135
110	0xbe45154e	-0.19246408
111	0x3e8cd0dd	0.275031
112	0x3f256886	0.64612615
113	0x3f01d8f3	0.50721663
114	0x3e09f1a8	0.13471091
115	0x3eba3c0e	0.36373943
116	0x3f082b11	0.53190714
117	0x3f278b6c	0.65447116
118	0x3f2ff0ad	0.6872662
119	0x3e960c37	0.29306194
120	0x3ea56458	0.3230312
121	0x3dcf34f2	0.101175204
122	0x3f06fb05	0.52726775
123	0x3ede0a1d	0.4336709
124	0x3e243eb7	0.16039549
125	0x3e346596	0.17616877
126	0x3ea28f2b	0.31749853
127	0x3eecc342	0.4624272
128	0x3e61d060	0.22052145
129	0x3e91c67b	0.2847174
130	0x3ead7a47	0.33882353
131	0x3eb8ecf4	0.3611828
132	0x3ecb36d3	0.39690265
133	0x3ee129a0	0.4397707
134	0x3e9085a2	0.28226954
135	0x3d0f7d06	0.03503134
136	0x3dd894a0	0.10575223
137	0x3ea19a08	0.3156283
138	0x3eb19c71	0.34689668
139	0xbd3f567f	-0.04671335
140	0x3d3c64e7	0.045994665
141	0xbeac7faf	-0.33691165
142	0xbe394bd2	-0.1809533
143	0xbdffcfbc	-0.12490794
144	0xbd203500	-0.039113045
145	0xbe942900	-0.2893753
146	0xbed18cf9	-0.40927866
147	0xbe8302be	-0.2558803
148	0x3c251bfe	0.010077475
149	0x3e42fd2e	0.19041893

conv1.0.bias f4 [6]
0	0xba402ed0	-0.00073311944
1	0x3d94b879	0.07261748
2	0xbbe25664	-0.006907271
3	0x3e01cc92	0.12675694
4	0xba921c09	-0.0011147271
5	0x3d893481	0.066994675

conv2.0.weight f4 [16, 6, 5, 5]
0	0x3d8bf62a	0.068340614
1	0xbbbeaa7f	-0.0058186646
2	0xbd8bcd51	-0.0682627
3	0x3c7f213f	0.015571891
4	0x3b3ffc63	0.0029294721
5	0x3e17c112	0.14819744
6	0x3de061ae	0.10956131
7	0xbcf94a86	-0.030431043
8	0xbb84da2a	-0.0040543275
9	0x3d9cf62f	0.07664143
10	0x3e02ad71	0.12761475
11	0x3dd9c5f2	0.10633458
12	0x3dd3787f	0.10325717
13	0xbd54463d	-0.051824797
14	0xbd58e33d	-0.052951086
15	0xbd0cfd80	-0.034421444
16	0x3d5e522e	0.05427759
17	0x3da6e392	0.08148874
18	0x3e328854	0.17434818
19	0x3c2676a5	0.010160123
20	0xbd4e9d7a	-0.05044315
21	0x3d91ebf5	0.07125083
22	0x3d903ac7	0.07042461
23	0x3d73f42a	0.059559025
24	0xbccfc6b5	-0.025363306
25	0x3d398ce3	0.045300376
26	0xbdd4187a	-0.10356231
27	0xbdd69e85	-0.10479454
28	0x3d9857b3	0.07438602
29	0x3d04a478	0.032383412
30	0xbcddf2a9	-0.027093248
31	0xbd902dbb	-0.070399724
32	0xbdc25b14	-0.09490028
33	0x3da4fbc0	0.0805583
34	0xbadd2e2a	-0.001687472
35	0x3d9eb38b	0.07749089
36	0x3d579dab	0.0526406
37	0xbd49bde5	-0.049253363
38	0xbdbac401	-0.09119416
39	0xbcd93f23	-0.026519364
40	0xbc2f7d54	-0.010711033
41	0x3dfad3d0	0.12247431
42	0x3d978477	0.073983125
43	0x3d26347c	0.040577397
44	0x3d5a4952	0.05329258
45	0x3d96973f	0.07353067
46	0xbc0e97b6	-0.008703163
47	0x3dbe0273	0.09277811
48	0x3d9779d2	0.07396282
49	0xbb87c4ed	-0.0041433484
50	0xbc663967	-0.014051772
51	0xbbb4cfbd	-0.0055179284
52	0xbc4d832f	-0.012543484
53	0x3c443818	0.011976264
54	0x3cbb3f21	0.02285725
55	0x3db8e2e2	0.090276495
56	0xbdcd229a	-0.10016365
57	0xbcd0c0cb	-0.025482556
58	0x3b30d9d2	0.00269853
59	0xbca29a62	-0.019849006
60	0x3d584eb0	0.052809417
61	0xbdb8b270	-0.09018409
62	0x3cf41557	0.029795332
63	0xbd1e2f57	-0.038619366
64	0x3cbb6c5f	0.022878824
65	0x3e05ab52	0.13053635
66	0xbca91da6	-0.02064402
67	0xbd3a9607	-0.045553233
68	0x3d2042dd	0.039126266
69	0xbcc227d3	-0.02370063
70	0xbbf16ad0	-0.0073674694
71	0x3d1e7321	0.038684014
72	0x3b685071	0.0035448337
73	0xb8e4ca17	-0.000109095294
74	0xbd5d77ed	-0.05406945
75	0xbd7e64b2	-0.06210775
76	0xbdbe6793	-0.09297099
77	0x3c8f8bb5	0.017522672
78	0xbd75076d	-0.059821535
79	0x3d905613	0.07047667
80	0xbdabe9bb	-0.0839419
81	0x3d876ca3	0.06612518
82	0x3d632a23	0.055460107
83	0x3bdec777	0.0067986804
84	0x3d529775	0.051413972
85	0x3bf5d144	0.007501753
86	0xbd71279c	-0.058875665
87	0xbcc52702	-0.024066452
88	0xbbfdf2d8	-0.0077498965
89	0x3d392f07	0.045210864
90	0x3dac37fc	0.08409116
91	0x3c8b80f9	0.017029272
92	0xbd52c662	-0.051458724
93	0x3da5d583	0.08097365
94	0xbd239139	-0.039933417
95	0x3d409322	0.047015317
96	0x3d843f44	0.064573795
97	0x3cb2595c	0.021771125
98	0x3ba1c005	0.0049362206
99	0xbc8d5d26	-0.01725633
100	0xbdb21d03	-0.0869694
101	0xbe05537e	-0.13020131
102	0xbe1d9402	-0.15388492
103	0xbd4300e1	-0.04760826
104	0x3d0aefec	0.033920214
105	0x3c4abffd	0.012374875
106	0xbe0e57e6	-0.13900718
107	0xbdbacdb4	-0.09121266
108	0x3d375c9c	0.044766054
109	0xbd560d75	-0.052258927
110	0x3d822cf1	0.06356228
111	0x3d5e9674	0.054342702
112	0x3d205e9d	0.03915273
113	0xbdc1779f	-0.09446644
114	0xbd8f5c7c	-0.07000062
115	0x3de2d19b	0.11075135
116	0x3d35d5fb	0.04439352
117	0xbbc547e7	-0.0060205343
118	0xbd6144f3	-0.054997396
119	0x3c1ccb5c	0.009569969
120	0x3d93d299	0.07217903
121	0x3d2e5913	0.042565417
122	0x3d28a793	0.041175436
123	0x3df9c64e	0.12196027
124	0x3b19af8c	0.0023450581
125	0x3d0bbf24	0.034117833
126	0xbce7b362	-0.028283779
127	0x3bb48d3a	0.0055099996
128	0xbd8d8aaf	-0.069112174
129	0xbce3f651	-0.027827414
130	0x3d93e158	0.07220715
131	0xbdb6a6c0	-0.08918524
132	0xbd1a01ab	-0.037599247
133	0xbda0b0e5	-0.0784624
134	0x3c2ba12f	0.010475441
135	0x3d43ac29	0.047771607
136	0x3d399fd1	0.04531843
137	0xbc9b5ece	-0.018966105
138	0x3c86ab3c	0.016439073
139	0x3bc518fd	0.0060149417
140	0x3d2375c3	0.03990723
141	0x3d7172bc	0.05894731
142	0xbd959e32	-0.07305564
143	0xbd04a157	-0.03238043
144	0xbd837739	-0.06419224
145	0x3dcf5655	0.101238884
146	0x3def5a9f	0.116872065
147	0xbc9c109d	-0.01905089
148	0x3d98de62	0.07464291
149	0x3db116ee	0.086469516
150	0xbc1972ad	-0.00936572
151	0xbda4cdab	-0.080470406
152	0xbd6e1a1f	-0.05813038
153	0x3d5e4519	0.054265115
154	0x3d369b91	0.044581953
155	0x3d2fd3ed	0.042926718
156	0x3c5abdd1	0.01335092
157	0xbe05cef5	-0.13067229
158	0x3d9bfc40	0.07616472
159	0x3da11c0b	0.07866677
160	0x3c884f0b	0.016639253
161	0x3d45012b	0.048096817
162	0xbd6106ca	-0.054938115
163	0xbd6ffa31	-0.05858821
164	0xbc879276	-0.01654933
165	0x3bc0e5bb	0.005886761
166	0xbd00ed4c	-0.031476304
167	0xbda3c069	-0.07995684
168	0x3ca335b9	0.019923078
169	0x3cfc7886	0.030819189
170	0xbd101790	-0.03517872
171	0x3dae4095	0.08508412
172	0x3a6235e3	0.00086292456
173	0xbb81dff7	-0.0039634663
174	0xbd68330e	-0.056689315
175	0xbd1dad7f	-0.038495537
176	0xbdafa77e	-0.085768685
177	0xbd1ac4f5	-0.03778549
178	0x3d5b9d6f	0.053616937
179	0xbc4ebc17	-0.012618086
180	0x3d6e413c	0.05816768
181	0xbdc5497d	-0.096331574
182	0xbd688159	-0.05676398
183	0x3cb51f15	0.022109548
184	0x3dc32360	0.095282316
185	0xbd5eb542	-0.05437208
186	0xbb3c0598	-0.0028689858
187	0xbdb3ab80	-0.087729454
188	0x3d37d67f	0.044882294
189	0x3dee66f4	0.116407305
190	0x3d62f02b	0.055404823
191	0xbc3daf93	-0.011577505
192	0xbd2367c3	-0.039893877
193	0x3cd4fd53	0.0259997
194	0xbdbfe521	-0.09369875
195	0x3d0f5766	0.03499546
196	0x3d814500	0.06311989
197	0xbd25af3a	-0.040450312
198	0xbd32bf10	-0.043639243
199	0xbdb19fae	-0.086730346
200	0xbd93d987	-0.072192244
201	0xbcb3b0db	-0.021934917
202	0xbda4a920	-0.080400705
203	0x3deabb55	0.11461512
204	0xbc9f1ce5	-0.019422958
205	0x3d2505bb	0.040288668
206	0xbd90ac09	-0.07064063
207	0xbd89eeee	-0.06735025
208	0x3df8a8d9	0.1214158
209	0x3e0102f8	0.12598789
210	0x3cba8edf	0.022773204
211	0x3d5363cc	0.051608846
212	0xbbf769d0	-0.0075504556
213	0xbd3b276d	-0.045691896
214	0x3d5836e9	0.05278674
215	0xbd0f08e1	-0.034920577
216	0xbde2418c	-0.11047658
217	0x3c1af2ef	0.009457334
218	0xbd26f257	-0.040758457
219	0x3cb3157a	0.021860827
220	0xbd3acbe2	-0.045604594
221	0xbc8de967	-0.017323209
222	0x3d944b17	0.07240885
223	0xbd6906d8	-0.056891292
224	0xbd83b00d	-0.064300634
225	0xbd43cbc0	-0.047801733
226	0xbd661bcf	-0.056178864
227	0xbcc99a4e	-0.024609711
228	0x3ddd7510	0.108133435
229	0xbd9cd114	-0.07657066
230	0xbd1ab561	-0.037770633
231	0xbd540503	-0.051762592
232	0x3d7b8a06	0.061410926
233	0x3dc81c20	0.097709894
234	0xbd8dbce4	-0.06920794
235	0xbd8fbddf	-0.07018637
236	0xbb8ee204	-0.0043604393
237	0xbc899a97	-0.016797347
238	0xbd760b20	-0.060069203
239	0x3d6fb2a9	0.058519993
240	0x3c784315	0.015152712
241	0xbd6bf698	-0.057608217
242	0xbd9f2693	-0.07771029
243	0xbcfaeb98	-0.030629918
244	0x3d0194fc	0.031636223
245	0xbd75763c	-0.05992721
246	0x3d852e59	0.06502981
247	0x3d4887a5	0.048957486
248	0x3dcf7844	0.10130361
249	0xbcf78683	-0.030215507
250	0x3d7560ac	0.059906647
251	0xbdca53b6	-0.09879248
252	0x3cf06f6c	0.029350005
253	0x3dfac8b8	0.12245315
254	0x3d94397d	0.072375275
255	0xbcd045dc	-0.025423937

conv2.0.bias f4 [16]
0	0x3d7ecbc9	0.062206063
1	0x3c8b91d5	0.017037312
2	0x3be15450	0.006876506
3	0x3d35af88	0.044356853
4	0x3cf76c36	0.030202966
5	0xbd5377fa	-0.05162809
6	0xbd60a6e5	-0.054846663
7	0xbdd52160	-0.104067564
8	0x3d911b1f	0.07085251
9	0x3cccd18a	0.02500226
10	0x3ca9ce1f	0.020728169
11	0xbc9eca05	-0.01938344
12	0xbc805178	-0.015663847
13	0x3d1e1bab	0.038600605
14	0xbd01ab08	-0.03165725
15	0x3d4fe780	0.050757885

fc1.0.weight f4 [120, 400]
0	0xbc0a8021	-0.0084534
1	0x3c8b7b4c	0.017026566
2	0xbb2745ea	-0.002552385
3	0xbd4b0405	-0.04956438
4	0x3cd3f8fa	0.025875557
5	0x3d20314a	0.039109506
6	0x3cf0160f	0.029307393
7	0x3ba80e5f	0.0051286663
8	0xbd56740f	-0.052356776
9	0x3c8be53a	0.017077077
10	0xbcf44025	-0.029815743
11	0x3b5c4bc0	0.0033614486
12	0xbcd425ce	-0.025896933
13	0x3c192e68	0.009349443
14	0x3c562ec3	0.013072672
15	0x3cd97df2	0.026549313
16	0x3cf58f74	0.02997563
17	0xbcc62cb9	-0.024191247
18	0xbc37ea99	-0.011225366
19	0x3d07fc11	0.033199374
20	0x3c497a60	0.012297243
21	0x3d05c42f	0.0326578
22	0x3ca0d33c	0.019631974
23	0xbc63c28f	-0.013901367
24	0x3d33a193	0.04385526
25	0xbccf67ab	-0.025317987
26	0x3c7b05ad	0.015321177
27	0x3c7751bb	0.01509517
28	0xbc227a70	-0.009916887
29	0x3d3878e6	0.045037173
30	0xbc097b0a	-0.008391151
31	0x3d0126be	0.031531088
32	0x3be74ada	0.0070584835
33	0x3ccadd8f	0.02476385
34	0x3cf372e0	0.029717863
35	0x3ca03184	0.01955486
36	0x3cdd1c32	0.026990984
37	0xbc64c9a9	-0.013964095
38	0xbd104744	-0.035224214
39	0xbc86a9a9	-0.016438322
40	0xbc4f1811	-0.012640015
41	0xbd1fd11a	-0.039017774
42	0x3d0b4068	0.03399697
43	0x3bfd77af	0.0077352147
44	0xbb311430	-0.002702009
45	0x3d2a6645	0.041601438
46	0xbcaafbd2	-0.02087203
47	0x3d0a56f1	0.03377432
48	0xbd08999f	-0.03334963
49	0x3cea11e7	0.02857299
50	0xbd58f51c	-0.05296813
51	0xbc0fc4eb	-0.008774976
52	0xbbfc8aac	-0.0077069607
53	0x3caca064	0.021072574
54	0x3a0167ef	0.0004936447
55	0x3d1e64e1	0.038670424
56	0xbd436e2e	-0.047712497
57	0x3cf9e2ce	0.030503657
58	0x3c8eca1f	0.017430363
59	0x3d3c22db	0.04593168
60	0xbd0cc2cc	-0.03436546
61	0x3c013652	0.007886486
62	0x3cecca62	0.028905097
63	0x3d10a29c	0.035311326
64	0x3d495efa	0.049162842
65	0x39f151e9	0.0004602813
66	0x3c5f3ffc	0.013626095
67	0x3d186863	0.037208926
68	0x3d2d308d	0.04228263
69	0xbc3b295c	-0.011423435
70	0x3a8778b4	0.0010335655
71	0x3cd494f0	0.025949925
72	0xbc998c89	-0.01874377
73	0x3b6bf40f	0.0036003625
74	0x3c7a02e5	0.015259479
75	0x3d1af9a7	0.037835743
76	0xbc578dc7	-0.013156361
77	0xbc89671c	-0.0167728
78	0x3d1b65c6	0.037938856
79	0x3d0ab45c	0.03386341
80	0xbc8f1cb2	-0.017469738
81	0x3cf60f4f	0.030036597
82	0xbcfdd639	-0.030985938
83	0x3d620ad1	0.055186097
84	0xbce0ae04	-0.027426727
85	0xbce35f8e	-0.027755525
86	0xbcf93942	-0.03042281
87	0xbbc37f4e	-0.0059661036
88	0xbd07be19	-0.033140276
89	0x3b1c7f44	0.0023879567
90	0x3cba5772	0.022746775
91	0xbcd619c8	-0.02613534
92	0xbc8da542	-0.017290715
93	0xbd2b161a	-0.041769125
94	0x3cb85cb9	0.022505151
95	0x3ccbb0af	0.024864523
96	0x3d29e9e6	0.04148283
97	0x3d27c6bf	0.040961023
98	0xbbe749fb	-0.0070583797
99	0x3d284ff6	0.04109188
100	0xbceae77a	-0.02867483
101	0x3d0f9b59	0.03506026
102	0x3bb4bf90	0.005516
103	0xbd01a0e6	-0.031647585
104	0x3d109c2b	0.035305183
105	0xbd36e14b	-0.04464845
106	0x3d4d1a7f	0.050074097
107	0x3b682b87	0.0035426335
108	0x3c16305e	0.009166805
109	0x3af9cb29	0.0019057739
110	0xbd0faf07	-0.03507903
111	0xbcf3c3b4	-0.029756404
112	0x3b1d573c	0.0024008295
113	0xbd1da6a1	-0.038488988
114	0x3cbf5260	0.02335471
115	0xbca6cc1f	-0.020361004
116	0x3c7baa82	0.015360476
117	0x3c34fee5	0.0110471
118	0x3c92acb7	0.017904622
119	0xbd1aeb72	-0.037822194
120	0xbc22a474	-0.009926904
121	0x3d1e0f43	0.038588773
122	0xbd096b9a	-0.033549882
123	0x3cd4a468	0.025957301
124	0xb8a45fdd	-7.837985e-05
125	0x3c709a25	0.014685188
126	0xbcd89232	-0.026436899
127	0x3bcb166f	0.0061977427
128	0xba969715	-0.0011489118
129	0xbc31b648	-0.010846682
130	0x3bed746f	0.007246546
131	0xbd3e7414	-0.04649742
132	0xbc96a399	-0.018388556
133	0xbcb4d8dd	-0.022076065
134	0xbcd32375	-0.025773743
135	0x3c0d0026	0.008605992
136	0xbc9173f3	-0.017755484
137	0x3c05f872	0.00817691
138	0x3ce025f9	0.027361857
139	0xbd0f1663	-0.03493346
140	0x3d271c90	0.040798724
141	0xbd0859d3	-0.033288788
142	0xbc9a5618	-0.01883988
143	0xbcf7dfef	-0.030258147
144	0x3cb52747	0.022113455
145	0xbd29a8d6	-0.04142078
146	0xbd155133	-0.03645439
147	0x3bf365cb	0.007427906
148	0x3c0fafdf	0.008769958
149	0x3ca954fd	0.020670408
150	0xbbbf8533	-0.005844736
151	0x3b9cbbaf	0.004783116
152	0xbd0c2a34	-0.034219936
153	0x3d6d8905	0.057992
154	0xbd0eb457	-0.034839954
155	0xbcca5fe0	-0.02470392
156	0x3d5963ca	0.053073682
157	0xbd3517e6	-0.044212244
158	0xbd11e89a	-0.035622217
159	0xbc81d00e	-0.015846279
160	0xbc364cca	-0.011126706
161	0xbca59f42	-0.020217542
162	0x3baf04e2	0.0053411582
163	0x3cdb9e5f	0.026808916
164	0x3c382159	0.011238419
165	0x3bb281c4	0.005447598
166	0xbce5e861	-0.028064908
167	0x3cecc8c9	0.028904336
168	0xbc6e2144	-0.014534298
169	0xbb1368bb	-0.0022492844
170	0x3c836133	0.01603756
171	0xbd2e7918	-0.042595953
172	0xbc0895bd	-0.008336482
173	0x3c224b08	0.009905584
174	0x3d2ce967	0.042214777
175	0x3c8c00cd	0.017090226
176	0xbd1f26a5	-0.038855214
177	0x3d1f958a	0.03896097
178	0xbcff0f17	-0.031135125
179	0xbbb94f54	-0.0056552086
180	0x3d38e1c8	0.045137197
181	0xbcf81850	-0.03028503
182	0xbd3872d8	-0.0450314
183	0xbc42792b	-0.011869709
184	0xbd009284	-0.03138973
185	0xbb6dbc88	-0.0036275703
186	0xbbc7500f	-0.006082542
187	0xbd4a14f4	-0.04933639
188	0x3d06d4d4	0.032917812
189	0x3d3005e2	0.04297436
190	0xbd058d8c	-0.032605693
191	0xbd1ee526	-0.03879275
192	0xbbd6dc1d	-0.0065570013
193	0x3d2b823c	0.041872248
194	0xbd2117c2	-0.039329298
195	0xbc7978a7	-0.01522652
196	0xbb90ac88	-0.0044150986
197	0x3d3656ac	0.04451625
198	0xbba112da	-0.0049155774
199	0x3c87c1a1	0.016571822
200	0xbca27d1e	-0.019835051
201	0xbd28511a	-0.04109297
202	0xbd2f8ebd	-0.042860735
203	0xbc3233f2	-0.010876643
204	0x3d3f3f34	0.046691135
205	0xbd07ed02	-0.033185013
206	0x3d19df6e	0.037566595
207	0x3c491f17	0.012275479
208	0x3c830370	0.01599285
209	0x3caefaac	0.021359764
210	0xbce95d0b	-0.02848675
211	0x3d4a3d12	0.049374647
212	0x3d43ec87	0.047832992
213	0xbd2b59f4	-0.041833833
214	0x3d1841da	0.037172176
215	0xbc74dee9	-0.014945724
216	0xbc6e9ba1	-0.014563472
217	0x3c3193ec	0.01083849
218	0x3cdef7af	0.027217714
219	0x3d1ce892	0.038307734
220	0x3c4ce670	0.012506112
221	0x3bcd2460	0.0062604398
222	0xbcfb1f2a	-0.030654509
223	0xbcda97f6	-0.026683789
224	0x3b0e58d0	0.0021720417
225	0xbcaf9046	-0.0214311
226	0xbcde718f	-0.027153758
227	0x3d1777be	0.03697943
228	0x3d56d299	0.052446935
229	0x3d3ef735	0.046622474
230	0x3d4aecda	0.049542286
231	0x3d14b54a	0.036305703
232	0x3cc9852a	0.02459963
233	0x3d32a5b0	0.043615043
234	0xbd26eb5f	-0.04075181
235	0x3b3afb81	0.0028531256
236	0xbd4aae2f	-0.04948252
237	0x3b93958b	0.004503911
238	0x3d45cd38	0.048291415
239	0x3d11fa3a	0.035639025
240	0xbc306b80	-0.0107678175
241	0x3d21532c	0.03938596
242	0xba516e63	-0.0007989166
243	0x3ced441f	0.028963147
244	0x3c9be21b	0.019028714
245	0x3d0d1ed7	0.03445324
246	0xbc836636	-0.016039949
247	0x3d4ef3c0	0.050525427
248	0xbd363136	-0.044480525
249	0xbd376cb8	-0.044781417
250	0x3cf780ce	0.030212786
251	0x3d5d8944	0.054085985
252	0x3d0acce2	0.033886798
253	0x3d246019	0.04013071
254	0x3c792f6a	0.015209058
255	0x3d2232a2	0.03959907

fc1.0.bias f4 [120]
0	0x3cf8eeb8	0.030387267
1	0xbd39d66c	-0.045370504
2	0x3d501f2c	0.050810978
3	0xbd14395a	-0.036187507
4	0xbcbe3010	-0.023216277
5	0xbc32e69e	-0.010919241
6	0xbd1dd4d6	-0.038533054
7	0x3d99df89	0.07513339
8	0xbd2cd3d8	-0.042194217
9	0xbcf17997	-0.029476924
10	0xbcdf55e9	-0.027262645
11	0x3c848bde	0.016179975
12	0xbcd4627d	-0.02592587
13	0xba94f7e4	-0.0011365381
14	0x3d49c63b	0.049261313
15	0x3c3ce5b5	0.011529376
16	0x3b9d2da8	0.0047967024
17	0x3cc86a8c	0.024464868
18	0x3bace7e4	0.005276667
19	0xbc9146ca	-0.01773395
20	0xbd266c8a	-0.040630855
21	0x3d47a28c	0.048739
22	0x3cbd8d07	0.023138536
23	0xbce233e1	-0.027612628
24	0x3cd3692a	0.025806982
25	0xbd4822bf	-0.04886126
26	0x3d0884db	0.033329826
27	0xbc8e8625	-0.01739795
28	0x3c231de9	0.009955862
29	0xbc84c3b7	-0.016206605
30	0xbd3d8c7b	-0.04627655
31	0x3ce58575	0.028017739
32	0xbc4e6c22	-0.012599023
33	0x3d08ee23	0.03343023
34	0x3c322dce	0.0108751785
35	0x3d19a69b	0.037512403
36	0x3d0aa8be	0.03385233
37	0xbc89e007	-0.016830457
38	0xbd4f5d31	-0.050625984
39	0x3d3e6c36	0.046489917
40	0xbd03bd67	-0.03216305
41	0xbd71c83d	-0.059028853
42	0x3c779029	0.015110054
43	0x3bf73201	0.0075438027
44	0xbd391a34	-0.045191005
45	0xbcdb4b61	-0.026769342
46	0x3c186233	0.009300756
47	0x3d4c5f3d	0.049895514
48	0x3cb8364c	0.022486828
49	0x3d342be0	0.043987155
50	0x3d185c95	0.037197668
51	0x3d7eee85	0.06223919
52	0x3d1e41fe	0.038637154
53	0x3c3052c0	0.010761917
54	0x3d143c26	0.036190175
55	0x3c33b7b8	0.010969095
56	0xbc9350c7	-0.017982854
57	0x3d1ca559	0.038243625
58	0x3d6a0ae3	0.05713929
59	0xbd0b2007	-0.03396609
60	0xbd0dfe71	-0.034666482
61	0xbce946df	-0.028476177
62	0xbcbb94d5	-0.022898117
63	0xbd1f340e	-0.038868003
64	0x3c6e62b6	0.014549902
65	0x3d0ec188	0.034852535
66	0x3c971b1b	0.018445542
67	0x3d1ca42c	0.038242504
68	0xbcd6be97	-0.026213927
69	0xbd47f1f7	-0.04881474
70	0x3b79c979	0.0038114472
71	0xbd2bcd9d	-0.041944135
72	0x3d4a3d3d	0.049374808
73	0x3d10032c	0.035159275
74	0x3d1d254f	0.03836566
75	0x3d33dcd3	0.043911766
76	0x3c58e072	0.013237106
77	0xbcd1c04f	-0.025604395
78	0x3d1339d9	0.03594384
79	0x3bf789ce	0.0075542694
80	0xbcb52deb	-0.022116622
81	0xbcca35fc	-0.024683945
82	0x3caa55c3	0.020792847
83	0xbcef24ed	-0.029192412
84	0x3ba5ae81	0.005056203
85	0x3c79534a	0.015217612
86	0xbb9dd47e	-0.004816591
87	0xbbefe605	-0.0073211216
88	0xbccdc61b	-0.025118878
89	0x3cba6515	0.022753278
90	0x3c8edae9	0.017438369
91	0x3cec7a1e	0.028866824
92	0xbc3176d7	-0.010831556
93	0x3d69e219	0.05710039
94	0xbcd1dde5	-0.025618503
95	0x3bb0047d	0.005371629
96	0xbb206cef	-0.0024478992
97	0x3ca656b6	0.020305019
98	0x3d2c778d	0.0421062
99	0x3add79eb	0.0016897296
100	0xbcb8bc99	-0.022550868
101	0x3b35be5c	0.0027731871
102	0xbced0af5	-0.028935889
103	0x3d3b8986	0.04578545
104	0xbd4e7c92	-0.05041177
105	0x3c77e629	0.015130558
106	0xbd42abec	-0.04752724
107	0xbcbf573b	-0.023357024
108	0x3bb84031	0.0056228866
109	0x3c3b556f	0.011433943
110	0x3d12e89e	0.035866372
111	0xbcba4140	-0.022736192
112	0xbd32dbbd	-0.04366659
113	0xbaea5524	-0.0017878157
114	0xbd4043b0	-0.04693955
115	0xbcda9db4	-0.026686527
116	0xbcbedd59	-0.023298906
117	0x3c19bd1a	0.009383464
118	0x3bff0c22	0.0077834288
119	0x3c5a18c3	0.013311568

fc2.0.weight f4 [84, 120]
0	0x3d14d193	0.036332678
1	0xbdee9591	-0.11649621
2	0xbc96e1ef	-0.01841828
3	0xbd05fc01	-0.032711033
4	0x3d887a94	0.06664005
5	0x3b87dd22	0.004146234
6	0xbda5c7e9	-0.080947705
7	0x3d82b357	0.063818626
8	0xbc0c3453	-0.008557397
9	0x3cf5b189	0.029991882
10	0x3cbf8ae1	0.023381652
11	0xbd246dc4	-0.040143743
12	0xbd01a9a7	-0.031655934
13	0x3cd1ee7f	0.02562642
14	0xbd803c6b	-0.06261524
15	0xbdbba901	-0.09163094
16	0x3dceb43d	0.100929715
17	0x3b98f4a1	0.004667834
18	0xbd3d662c	-0.046240017
19	0xbd8fe423	-0.070259355
20	0xbd6ffba3	-0.05858959
21	0x3da0dcab	0.07854589
22	0x3c9ff8c8	0.019527808
23	0x3d00246a	0.031284727
24	0xbd51a7ba	-0.051185347
25	0x3d3b7c8b	0.04577307
26	0xbd95ef15	-0.07320992
27	0xbdb27b02	-0.08714868
28	0xbdad7dc9	-0.08471257
29	0x3d0ab1fb	0.03386114
30	0xbab9a77c	-0.0014164294
31	0xbd6a7b09	-0.05724624
32	0x3d93f317	0.072241
33	0xbd226fd7	-0.03965744
34	0xbd9d39ee	-0.07677065
35	0xbc1fb70b	-0.009748231
36	0xbd87c61d	-0.06629584
37	0xbd64d6d5	-0.055868942
38	0xbdacf384	-0.084448844
39	0xbac5df2b	-0.0015096416
40	0xba73fa82	-0.0009307043
41	0xbd839f33	-0.06426849
42	0x3d260d76	0.04054018
43	0x3cbf6ed7	0.023368282
44	0x3d2aa426	0.04166045
45	0x3cc80c77	0.024420006
46	0x3da88af6	0.0822963
47	0xbd8200d0	-0.06347811
48	0xbda47f31	-0.08032072
49	0x3d75e51e	0.060032956
50	0x3d85ba4e	0.065296754
51	0xbd8e11c1	-0.0693698
52	0xbd672416	-0.0564309
53	0xbdaae3b3	-0.083442114
54	0x3d53f54b	0.0517476
55	0xbcb4a1b1	-0.022049757
56	0x3d8d3765	0.06895331
57	0x3c43e6b1	0.011956857
58	0x3daeb648	0.08530861
59	0x396161b4	0.0002149407
60	0x3d459cf3	0.04824538
61	0x3dca8500	0.09888649
62	0xbc187df0	-0.00930737
63	0x3da69d92	0.08135523
64	0xbdc20959	-0.09474439
65	0xbcd3f7d3	-0.025875008
66	0x3c27e67f	0.010247826
67	0x3d9a4a31	0.07533682
68	0xbd68cdfe	-0.056837074
69	0x3d189314	0.03724964
70	0xbd4a493b	-0.049386244
71	0xbc8012ee	-0.015634026
72	0xbac5484e	-0.0015051456
73	0x3c62c2e9	0.0138404155
74	0xbd4cb8cc	-0.049980924
75	0x3d7f2f11	0.062300745
76	0x3da57a31	0.08079947
77	0xbc02058b	-0.007935892
78	0xbc871af6	-0.016492348
79	0xbda27934	-0.07933274
80	0x3d36d2e1	0.044634704
81	0xbd604d64	-0.054761305
82	0x3d1077f1	0.035270635
83	0xbc5e8da8	-0.013583578
84	0xbdd1f5df	-0.10251974
85	0xbc137628	-0.009000339
86	0x3cd94b54	0.026525177
87	0x3d4625b5	0.048375804
88	0xbd30c844	-0.04315974
89	0xbd07d8c0	-0.033165693
90	0xbc26fd38	-0.010192208
91	0xbc0164f3	-0.007897603
92	0x3d991b38	0.07475895
93	0xbcceef79	-0.025260674
94	0x3ce02c46	0.027364861
95	0x3c847c5e	0.016172584
96	0x3d251213	0.04030044
97	0xbd302179	-0.043000672
98	0xbcc29066	-0.023750495
99	0xbc33785b	-0.010953988
100	0x3cb389cd	0.021916294
101	0xbd5bfdbe	-0.053708784
102	0xbd7c594c	-0.061608598
103	0xbd1895ce	-0.03725224
104	0x3d7e184a	0.062034883
105	0x3dc6902e	0.09695469
106	0xbd31a8dd	-0.04337393
107	0xbc7b88f7	-0.015352479
108	0xbd5c064c	-0.053716943
109	0x3d908607	0.07056814
110	0x3d5f4b2b	0.054515045
111	0xba973216	-0.0011535313
112	0xbcc7cd5f	-0.02438992
113	0x3ca75d2b	0.020430168
114	0x3d828137	0.06372302
115	0x3d994953	0.074846886
116	0xbd1d6362	-0.038424857
117	0x3d318378	0.04333827
118	0x3c922726	0.017840933
119	0x3c899377	0.01679395
120	0x3da494fe	0.080362305
121	0xbc89c3a8	-0.016816929
122	0x3e0d4cbb	0.13798802
123	0xbdcd7dd8	-0.100337684
124	0xbd280b94	-0.041026667
125	0xbca49e44	-0.020094998
126	0x3daf7a46	0.08568244
127	0x3e00067f	0.12502478
128	0x3d5dca8b	0.05414824
129	0x3d9e63e7	0.077338986
130	0x3c81bb42	0.015836362
131	0x3ccce334	0.025010683
132	0x3d55e9d3	0.052224945
133	0x3c1b2986	0.009470349
134	0xbd23c90b	-0.03998665
135	0xbcc51e13	-0.024062192
136	0x3d6c2d8d	0.057660628
137	0x3dccd3a2	0.10001303
138	0xbdb93649	-0.09043557
139	0x3d0ab1de	0.033861034
140	0x3d08aee1	0.033369903
141	0xbd17dbce	-0.037074856
142	0xbe0b6638	-0.13613212
143	0xbda0b61b	-0.07847234
144	0x3d862c94	0.06551471
145	0x3d4705a2	0.048589356
146	0x3baee200	0.005337
147	0xbc90ec67	-0.01769085
148	0xbc138249	-0.00900323
149	0x3d3f9c54	0.046779945
150	0x3d751dec	0.05984299
151	0xbc874dfd	-0.01651668
152	0x3d805399	0.06265945
153	0x3c52c3ab	0.012864034
154	0xbdaf5d70	-0.08562744
155	0x3daf293c	0.08552787
156	0xbc3f0d0e	-0.011660827
157	0xbcd49295	-0.025948802
158	0x3dba8b00	0.091085434
159	0x3dee7571	0.11643494
160	0x3e0d0e0c	0.1377489
161	0xbd8edd59	-0.069758125
162	0x3d6475d4	0.055776432
163	0xbca2bc46	-0.019865166
164	0x3db8da8c	0.090260595
165	0x3e1c3549	0.15254702
166	0x3d88aab7	0.06673186
167	0xbd8b3ad3	-0.06798329
168	0xbd49db7f	-0.049281593
169	0x3c3d25ce	0.011544658
170	0xbc74938f	-0.014927759
171	0xbd869391	-0.06571115
172	0x3db1d37d	0.08682916
173	0x3d04e143	0.03244139
174	0xbc34711c	-0.0110132955
175	0xbbe5fc27	-0.0070185843
176	0xbd1b0ee7	-0.03785601
177	0x3dec10c5	0.11526636
178	0xbdbfedf1	-0.093715556
179	0xbdf3c951	-0.119036324
180	0xbd09efc3	-0.03367592
181	0xbcef7eef	-0.029235331
182	0x3daccaf2	0.08437146
183	0x3ca4edec	0.020132981
184	0x3d447b1d	0.047968972
185	0xbd5019fe	-0.050806038
186	0x3bb6259d	0.005558683
187	0x3d1f58b4	0.038902953
188	0x3d0fcdaf	0.035108265
189	0x3d8b8b0c	0.068136305
190	0xbd1f4fb6	-0.038894378
191	0x3bd62fbe	0.006536453
192	0xbd899dad	-0.067195274
193	0xbdcb6341	-0.099310406
194	0xbcec9b73	-0.028882718
195	0xbd175776	-0.036948644
196	0x3d8ba616	0.06818788
197	0x3d98146e	0.07425772
198	0xbd0cc0df	-0.034363624
199	0xbdddab62	-0.10823704
200	0xbd50aad7	-0.050944176
201	0xbd0dad90	-0.03458935
202	0xbdfe86fb	-0.12428089
203	0x3d7de5b1	0.06198663
204	0xbd1a6e6c	-0.037702963
205	0xbd9496e4	-0.072553426
206	0xbd863002	-0.065521255
207	0xbc2d3c6d	-0.010573489
208	0x3a915d25	0.0011090381
209	0xbc51556d	-0.012776715
210	0xbc0a862a	-0.008454839
211	0x3d84208e	0.06451522
212	0xbdd2f495	-0.103005566
213	0x3d885676	0.06657116
214	0xbd91393c	-0.07090995
215	0x3d9ca5b9	0.076487966
216	0x3d356134	0.044282153
217	0x3d0d1ed1	0.034453217
218	0xbc98a6a8	-0.018634155
219	0xbcee6f99	-0.029105948
220	0xbc9e1730	-0.019298166
221	0xbd138b58	-0.03602156
222	0x3d57bc67	0.05266991
223	0x3c333537	0.01093798
224	0x3d59c465	0.053165812
225	0xbd4bdf13	-0.049773287
226	0xbcd42c24	-0.025899954
227	0xbd833f4f	-0.064085595
228	0xbc0e0123	-0.008667263
229	0xba8993ff	-0.0010496377
230	0xbd101d0d	-0.035183955
231	0x3d85ae97	0.06527441
232	0xbd10233c	-0.035189852
233	0xbd746668	-0.059667975
234	0xbd945b02	-0.07243921
235	0xbda4c115	-0.0804464
236	0x3d13a730	0.036048114
237	0x3d4f13ed	0.050556112
238	0x3d211912	0.03933055
239	0x3db4ddd9	0.088313766
240	0x3d02ad83	0.031903755
241	0xbd5245b3	-0.051336
242	0x3d3501d6	0.044191204
243	0x3d9b7882	0.075913444
244	0xbe0167d5	-0.12637265
245	0xbdbfcdb0	-0.09365404
246	0x3dc758a2	0.09733702
247	0xbdb755f9	-0.08951945
248	0x3d9a8626	0.07545118
249	0x3d6942e4	0.056948557
250	0x3dbd62c0	0.09247351
251	0x3d19d19c	0.037553415
252	0x3cd853e9	0.026407199
253	0xbd1b9b7a	-0.03799007
254	0xbbb0628f	-0.005382843
255	0x3e3a4d4e	0.18193552

fc2.0.bias f4 [84]
0	0x3b94c6fd	0.004540323
1	0xbd552aae	-0.052042656
2	0x3ca0c7de	0.019626554
3	0x3d579669	0.052633677
4	0x3d89d69d	0.06730387
5	0xbd2fb735	-0.04289933
6	0xbd20d6b6	-0.039267264
7	0xbd857d4f	-0.06518041
8	0xbcb705fa	-0.022341717
9	0x3bb0452b	0.005379339
10	0x3d1bf9af	0.038079914
11	0xbc4d945c	-0.012547579
12	0x3de46bb7	0.111533575
13	0xbd83e02f	-0.06439244
14	0x3dc77d58	0.09740704
15	0x3d3a4cba	0.04548333
16	0x3d10c511	0.035344187
17	0xbcfc27f9	-0.03078078
18	0xbd19f8fd	-0.03759097
19	0xbdb47a29	-0.08812363
20	0x3d341174	0.043961957
21	0x3db3c301	0.087774284
22	0x3d9d3c51	0.0767752
23	0xbd9243ea	-0.0714186
24	0x3d6ee3a3	0.05832256
25	0xbdb012a4	-0.085973054
26	0x3d94ef6c	0.072722286
27	0xbd59ed4c	-0.05320482
28	0xbc7ecc2e	-0.01555161
29	0x3d448560	0.04797876
30	0xbd66e120	-0.05636704
31	0xbdaa3876	-0.0831155
32	0xbca8ac77	-0.02059005
33	0xbc8b6e0b	-0.017020246
34	0xbd65e311	-0.05612475
35	0x3d9b4862	0.07582165
36	0xbbe53568	-0.006994892
37	0x3b9c44f5	0.0047689625
38	0xbd9d1792	-0.07670511
39	0xbd8387a7	-0.06422358
40	0xbd64d542	-0.05586744
41	0x3d8b7763	0.068098806
42	0x3c0f6509	0.008752116
43	0xbd3a3da6	-0.04546895
44	0xbd277ad6	-0.04088863
45	0xbbf739fe	-0.007544755
46	0x3cbe129e	0.023202237
47	0x3c8f92d0	0.01752606
48	0x3dc62dcb	0.09676703
49	0x3c65c922	0.014025005
50	0x3d0561ce	0.032563977
51	0xbd1f683c	-0.038917765
52	0xbd914229	-0.07092697
53	0x3d9fe886	0.07808022
54	0x3d8409c3	0.064471744
55	0x3baef14d	0.005338824
56	0x3bfde4b1	0.0077482094
57	0x3da7c30a	0.081914976
58	0x3d42d317	0.047564592
59	0x3dcb564a	0.09928568
60	0x3db8fb39	0.09032292
61	0xbdb35425	-0.08756284
62	0x3dc4f7c6	0.096175715
63	0x3d4ca1fa	0.04995916
64	0xbb8a1ef9	-0.004215118
65	0xbbcd159d	-0.00625868
66	0xbd353592	-0.04424054
67	0x3dc1b8da	0.09459086
68	0x3d3daba0	0.046306252
69	0x3db12f36	0.08651583
70	0x3d95f8c9	0.07322843
71	0x3d3fef0b	0.04685883
72	0xbc9aeced	-0.018911803
73	0x3d2ed4bc	0.042683348
74	0xbd304731	-0.043036643
75	0x3d778cc1	0.060436968
76	0x3d9119cd	0.07084999
77	0x3c060213	0.0081792055
78	0x3dc0db3a	0.09416814
79	0xbdb25b51	-0.087088235
80	0x3dd85438	0.105629385
81	0xbc5c7f17	-0.013458035
82	0xbcda158b	-0.0266216
83	0x3d52b0d9	0.051438186

fc3.weight f4 [10, 84]
0	0xbd9f535a	-0.0777957
1	0x3d3035f8	0.04302022
2	0x3e6004c2	0.21876815
3	0x3e07ee0b	0.132744
4	0x3d7ee0be	0.06222605
5	0x3dad98d5	0.08476416
6	0xbb99b749	-0.0046910387
7	0xbb5d2edb	-0.0033749852
8	0xbd75764e	-0.059927277
9	0x3dc1f11f	0.09469818
10	0x3d95fbaf	0.073233955
11	0x3d15f4fd	0.036610592
12	0x3eaa26a0	0.33232594
13	0xbd683639	-0.056692336
14	0x3e18caed	0.1492116
15	0x3e72e0ab	0.23718517
16	0xbe05bfdf	-0.13061474
17	0xbcef0239	-0.029175865
18	0x3debaa4b	0.1150709
19	0xbdc18d76	-0.0945081
20	0x3dce46b8	0.10072082
21	0x3e13dc00	0.14439392
22	0x3e0c48be	0.13699624
23	0x3ce75cff	0.028242586
24	0x3c8c8812	0.017154727
25	0x3d45dbc5	0.04830529
26	0xbdb14b47	-0.08656936
27	0xbd17b898	-0.037041277
28	0x3c0b21b7	0.008491925
29	0xbe8e08ac	-0.2774099
30	0xbd8c6bb7	-0.068564825
31	0x3d14686f	0.036232408
32	0x3d4d7741	0.050162558
33	0xbd2f8ef2	-0.042860933
34	0x3dd0d532	0.10196914
35	0x3dd1d1cf	0.10245096
36	0x38c19652	9.2309565e-05
37	0xbdffe215	-0.124942936
38	0x3c830356	0.015992802
39	0x3d6faf46	0.058516763
40	0xbd757bff	-0.059932705
41	0xbcb3d6da	-0.021953035
42	0xbdf0bf19	-0.11755199
43	0xbdb03c87	-0.08605295
44	0xbe046047	-0.12927352
45	0xbdd5609f	-0.1041882
46	0xbe6fcee9	-0.23418774
47	0x3c7e9b63	0.015539977
48	0x3dbf576f	0.093428485
49	0x3b113076	0.002215413
50	0xbd879d25	-0.0662177
51	0xbd1cc9cc	-0.038278386
52	0x3deda0bb	0.116029225
53	0x3df4d8b2	0.11955394
54	0x3d292a5d	0.041300166
55	0x3dd9df6e	0.10638319
56	0x3e0a4cf2	0.13505915
57	0x3e752ed0	0.23943639
58	0x3d259de6	0.040433787
59	0xbe5111c9	-0.20416941
60	0xbd91f5c0	-0.07126951
61	0xbd210556	-0.03931173
62	0xbd42a93b	-0.047524672
63	0x3d3ab09d	0.045578588
64	0xbdb63445	-0.08896688
65	0x3e3ce54f	0.1844685
66	0xbe271dae	-0.16319916
67	0xbea13ad9	-0.3149021
68	0xbe4701b0	-0.19434237
69	0xbcab413b	-0.020905128
70	0xbd990398	-0.074713886
71	0xbd19d7ac	-0.037559196
72	0xbe125e62	-0.14293817
73	0xbe2934d3	-0.16524057
74	0x3e0b679f	0.13613747
75	0xbde7e487	-0.11322885
76	0x3ce3b068	0.027794078
77	0xbd6311e7	-0.055436995
78	0x3d9fa29f	0.077946894
79	0x3bb6c68a	0.005577867
80	0x3cc4f670	0.024043292
81	0xbc3a1f22	-0.011359962
82	0x3e76da26	0.24106655
83	0xb9ca0bef	-0.00038537334
84	0x3cca1cd4	0.02467195
85	0xbe076d23	-0.13225226
86	0xbe070165	-0.13184126
87	0xbe35b1eb	-0.17743652
88	0xbe2d01b1	-0.16895176
89	0xbba0c084	-0.004905762
90	0xbe09bc62	-0.13450769
91	0x3dd2b2c0	0.10288
92	0x3da82671	0.08210457
93	0xbc865942	-0.016399983
94	0xbdff6fdc	-0.12472507
95	0xbd5cb3f2	-0.053882547
96	0x3d072c43	0.033001196
97	0xbde197a4	-0.11015251
98	0xbe2dff80	-0.16991997
99	0x3afe40c3	0.0019397963
100	0x3da2404f	0.07922422
101	0xbe009993	-0.12558584
102	0x3d04d3bc	0.032428488
103	0x3d99e27e	0.07513903
104	0xbcc81690	-0.024424821
105	0x3e033616	0.12813601
106	0xbdf689bf	-0.12037992
107	0x3d4b7531	0.04967231
108	0xbde22c9f	-0.11043667
109	0xbb85fbbf	-0.0040888484
110	0xbdd4f8d8	-0.10399026
111	0x3e4f11a4	0.20221573
112	0xbdabe844	-0.083939105
113	0xbc05b734	-0.008161355
114	0x3d173c2a	0.03692261
115	0x3d540b26	0.051768444
116	0x3d82e0db	0.06390544
117	0xbe5a8c50	-0.21342587
118	0xbdc8301a	-0.097748
119	0x3d74c0f8	0.05975434
120	0x3d40e158	0.047089905
121	0x3e5545be	0.20827386
122	0xbd5dcee7	-0.054152396
123	0x3c66ab8f	0.014078989
124	0xbe3df145	-0.18549068
125	0xbe41a038	-0.18908775
126	0x3d81e13d	0.06341789
127	0x3d95139c	0.07279131
128	0xbb184edb	-0.002324036
129	0x3e751c30	0.23936534
130	0xbd30fe5d	-0.04321133
131	0xbdb2a32a	-0.08722527
132	0x3e72af57	0.236997
133	0x3e17ee05	0.14836891
134	0xbddd9afb	-0.10820576
135	0xbd364a9e	-0.044504754
136	0xbd0b2fc7	-0.03398111
137	0xbe38f68c	-0.180628
138	0x3ec4c330	0.38430166
139	0xbdd603a6	-0.10449915
140	0x3da421de	0.08014272
141	0xbd4ad528	-0.049519688
142	0xbe473ca6	-0.1945673
143	0x3e56ca65	0.20975645
144	0xbdd1a52f	-0.102365844
145	0x3dd753fe	0.10514067
146	0x3b4b272f	0.0030998697
147	0x3e38d2f9	0.1804923
148	0x3e3838ac	0.17990369
149	0x3ded010f	0.115724675
150	0xbe1d5022	-0.153626
151	0x3e062be8	0.13102686
152	0xbe213854	-0.15744144
153	0xbe28a127	-0.16467725
154	0x3ddb1db1	0.106990226
155	0x3d158066	0.036499403
156	0x3dd623f5	0.10456077
157	0xbd39e6fe	-0.045386307
158	0xbc6df111	-0.014522807
159	0x3e7661f4	0.24060804
160	0xbe5ab52e	-0.21358177
161	0xbcbbf9c4	-0.022946246
162	0x3e4377b1	0.19088627
163	0x3dc11574	0.0942792
164	0x3d225fbb	0.039642077
165	0x3d7d042c	0.061771557
166	0x3d005d37	0.031338897
167	0x3c9e1ca4	0.019300766
168	0xbd9b5110	-0.07583821
169	0x3e24e04e	0.1610119
170	0xbe0588c3	-0.13040452
171	0xbe0c4d6f	-0.13701414
172	0x3e03ef5a	0.12884274
173	0x3cd427af	0.025897829
174	0x3dcc54cb	0.099771105
175	0x3d8d35f6	0.06895058
176	0x3dc57067	0.0964058
177	0x3e811116	0.25208348
178	0xbc501b45	-0.012701814
179	0x3c89f1ff	0.016839026
180	0x3e23f860	0.16012716
181	0x3e5c23eb	0.21498077
182	0xbe271756	-0.16317496
183	0x3ca913cb	0.02063932
184	0xbd58efc9	-0.052963052
185	0x3de5396b	0.11192592
186	0x3dbda28f	0.09259521
187	0xb883c726	-6.283661e-05
188	0x3cc3e8f0	0.023914784
189	0x3e0b3dc1	0.13597776
190	0x3d7ac7e4	0.061225787
191	0x3d0bcac8	0.034128934
192	0x3e8f4065	0.27978817
193	0x3db5dad4	0.08879629
194	0x3dcb81f6	0.099368975
195	0x3d88bd19	0.066766925
196	0x3da61263	0.08108976
197	0x3d722cc3	0.05912472
198	0xbe18d38d	-0.1492445
199	0x3dcc72f4	0.09982863
200	0x3c4c01b1	0.012451575
201	0x3e3100ee	0.17285511
202	0xbd995ea6	-0.07488756
203	0x3df8bcd9	0.12145395
204	0x3cf8bed0	0.030364424
205	0xbe795cd2	-0.24351814
206	0x3dc20142	0.09472896
207	0xbdb000db	-0.08593913
208	0xbcbfd6e3	-0.023417896
209	0xbe5208a3	-0.20511107
210	0xbe90e5b4	-0.2830025
211	0x3d818d16	0.06325738
212	0xbbbb5e66	-0.0057180403
213	0x3e7b3828	0.2453314
214	0xbe2f006a	-0.17090002
215	0x3e65ec0b	0.22453324
216	0x3c54553d	0.0129597755
217	0x3e4ec854	0.20193607
218	0x3de5aa2d	0.11214099
219	0x3daf74ee	0.085672244
220	0x3e306e96	0.17229685
221	0xbcf41f6d	-0.029800141
222	0x3d837ec9	0.06420667
223	0xbd1adca4	-0.037808076
224	0x3e2bd6cf	0.16781162
225	0x3dfd2eb8	0.123624265
226	0xbd53e442	-0.051731355
227	0xbe222499	-0.15834273
228	0xbea2a006	-0.31762713
229	0x3dce14e1	0.10062576
230	0xbd07b785	-0.033134002
231	0x3e2dc070	0.1696794
232	0xbd567f49	-0.052367482
233	0xbe4a04b4	-0.19728357
234	0x3e6514bb	0.2237119
235	0x3e021341	0.12702657
236	0xbe8d7a89	-0.2763255
237	0xbe96d341	-0.2945805
238	0xbd444949	-0.047921453
239	0x3cf71804	0.030162819
240	0xbde5efb3	-0.112273596
241	0xbd5b2bdc	-0.053508624
242	0xbc450066	-0.012024021
243	0xbe16fd04	-0.14744955
244	0xbe4b91a7	-0.1987978
245	0xbddb2c2a	-0.10701783
246	0xbe2717b8	-0.16317642
247	0x3d88165e	0.06644891
248	0x3c0d71bf	0.008633076
249	0xbce058a7	-0.027386023
250	0xbb353a9c	-0.0027653342
251	0x3cf9b44b	0.030481478
252	0xbda73838	-0.0816502
253	0xbdabc514	-0.08387199
254	0xbd7a6f23	-0.061141144
255	0x3d56ff57	0.052489605

fc3.bias f4 [10]
0	0xbd48fff3	-0.049072217
1	0x3dcf3ace	0.10118638
2	0xbdb25770	-0.08708084
3	0x3b604afc	0.0034224382
4	0x3d47c119	0.048768137
5	0xbc10a915	-0.008829375
6	0xbc4a5002	-0.012348177
7	0x3dd0a6b9	0.1018805
8	0xbd935fbf	-0.071959965
9	0xba8d6a03	-0.001078904
